node {
  name: "G4SM2HGMB5"
  op: "VarHandleOp"
  device: "/job:localhost/replica:0/task:0/device:GPU:0"
  attr {
    key: "_class"
    value {
      list {
        s: "loc:@G4SM2HGMB5/Read/ReadVariableOp"
      }
    }
  }
  attr {
    key: "container"
    value {
      s: ""
    }
  }
  attr {
    key: "dtype"
    value {
      type: DT_FLOAT
    }
  }
  attr {
    key: "shape"
    value {
      shape {
        dim {
          size: 117
        }
        dim {
          size: 224
        }
        dim {
          size: 224
        }
        dim {
          size: 3
        }
      }
    }
  }
  attr {
    key: "shared_name"
    value {
      s: "G4SM2HGMB5"
    }
  }
}
node {
  name: "HK0SX0WHBZ"
  op: "VarHandleOp"
  device: "/job:localhost/replica:0/task:0/device:GPU:0"
  attr {
    key: "_class"
    value {
      list {
        s: "loc:@HK0SX0WHBZ/Read/ReadVariableOp"
      }
    }
  }
  attr {
    key: "container"
    value {
      s: ""
    }
  }
  attr {
    key: "dtype"
    value {
      type: DT_FLOAT
    }
  }
  attr {
    key: "shape"
    value {
      shape {
        dim {
          size: 117
        }
        dim {
          size: 1
        }
      }
    }
  }
  attr {
    key: "shared_name"
    value {
      s: "HK0SX0WHBZ"
    }
  }
}
node {
  name: "bn2a_branch1/moving_mean"
  op: "VarHandleOp"
  device: "/job:localhost/replica:0/task:0/device:GPU:0"
  attr {
    key: "_class"
    value {
      list {
        s: "loc:@bn2a_branch1_1/AssignMovingAvg/AssignSubVariableOp"
      }
    }
  }
  attr {
    key: "container"
    value {
      s: ""
    }
  }
  attr {
    key: "dtype"
    value {
      type: DT_FLOAT
    }
  }
  attr {
    key: "shape"
    value {
      shape {
        dim {
          size: 256
        }
      }
    }
  }
  attr {
    key: "shared_name"
    value {
      s: "bn2a_branch1/moving_mean"
    }
  }
}
node {
  name: "bn2a_branch1/moving_variance"
  op: "VarHandleOp"
  device: "/job:localhost/replica:0/task:0/device:GPU:0"
  attr {
    key: "_class"
    value {
      list {
        s: "loc:@bn2a_branch1_1/AssignMovingAvg_1/AssignSubVariableOp"
      }
    }
  }
  attr {
    key: "container"
    value {
      s: ""
    }
  }
  attr {
    key: "dtype"
    value {
      type: DT_FLOAT
    }
  }
  attr {
    key: "shape"
    value {
      shape {
        dim {
          size: 256
        }
      }
    }
  }
  attr {
    key: "shared_name"
    value {
      s: "bn2a_branch1/moving_variance"
    }
  }
}
node {
  name: "bn2a_branch2a/moving_mean"
  op: "VarHandleOp"
  device: "/job:localhost/replica:0/task:0/device:GPU:0"
  attr {
    key: "_class"
    value {
      list {
        s: "loc:@bn2a_branch2a_1/AssignMovingAvg/AssignSubVariableOp"
      }
    }
  }
  attr {
    key: "container"
    value {
      s: ""
    }
  }
  attr {
    key: "dtype"
    value {
      type: DT_FLOAT
    }
  }
  attr {
    key: "shape"
    value {
      shape {
        dim {
          size: 64
        }
      }
    }
  }
  attr {
    key: "shared_name"
    value {
      s: "bn2a_branch2a/moving_mean"
    }
  }
}
node {
  name: "bn2a_branch2a/moving_variance"
  op: "VarHandleOp"
  device: "/job:localhost/replica:0/task:0/device:GPU:0"
  attr {
    key: "_class"
    value {
      list {
        s: "loc:@bn2a_branch2a_1/AssignMovingAvg_1/AssignSubVariableOp"
      }
    }
  }
  attr {
    key: "container"
    value {
      s: ""
    }
  }
  attr {
    key: "dtype"
    value {
      type: DT_FLOAT
    }
  }
  attr {
    key: "shape"
    value {
      shape {
        dim {
          size: 64
        }
      }
    }
  }
  attr {
    key: "shared_name"
    value {
      s: "bn2a_branch2a/moving_variance"
    }
  }
}
node {
  name: "bn2a_branch2b/moving_mean"
  op: "VarHandleOp"
  device: "/job:localhost/replica:0/task:0/device:GPU:0"
  attr {
    key: "_class"
    value {
      list {
        s: "loc:@bn2a_branch2b_1/AssignMovingAvg/AssignSubVariableOp"
      }
    }
  }
  attr {
    key: "container"
    value {
      s: ""
    }
  }
  attr {
    key: "dtype"
    value {
      type: DT_FLOAT
    }
  }
  attr {
    key: "shape"
    value {
      shape {
        dim {
          size: 64
        }
      }
    }
  }
  attr {
    key: "shared_name"
    value {
      s: "bn2a_branch2b/moving_mean"
    }
  }
}
node {
  name: "bn2a_branch2b/moving_variance"
  op: "VarHandleOp"
  device: "/job:localhost/replica:0/task:0/device:GPU:0"
  attr {
    key: "_class"
    value {
      list {
        s: "loc:@bn2a_branch2b_1/AssignMovingAvg_1/AssignSubVariableOp"
      }
    }
  }
  attr {
    key: "container"
    value {
      s: ""
    }
  }
  attr {
    key: "dtype"
    value {
      type: DT_FLOAT
    }
  }
  attr {
    key: "shape"
    value {
      shape {
        dim {
          size: 64
        }
      }
    }
  }
  attr {
    key: "shared_name"
    value {
      s: "bn2a_branch2b/moving_variance"
    }
  }
}
node {
  name: "bn2a_branch2c/moving_mean"
  op: "VarHandleOp"
  device: "/job:localhost/replica:0/task:0/device:GPU:0"
  attr {
    key: "_class"
    value {
      list {
        s: "loc:@bn2a_branch2c_1/AssignMovingAvg/AssignSubVariableOp"
      }
    }
  }
  attr {
    key: "container"
    value {
      s: ""
    }
  }
  attr {
    key: "dtype"
    value {
      type: DT_FLOAT
    }
  }
  attr {
    key: "shape"
    value {
      shape {
        dim {
          size: 256
        }
      }
    }
  }
  attr {
    key: "shared_name"
    value {
      s: "bn2a_branch2c/moving_mean"
    }
  }
}
node {
  name: "bn2a_branch2c/moving_variance"
  op: "VarHandleOp"
  device: "/job:localhost/replica:0/task:0/device:GPU:0"
  attr {
    key: "_class"
    value {
      list {
        s: "loc:@bn2a_branch2c_1/AssignMovingAvg_1/AssignSubVariableOp"
      }
    }
  }
  attr {
    key: "container"
    value {
      s: ""
    }
  }
  attr {
    key: "dtype"
    value {
      type: DT_FLOAT
    }
  }
  attr {
    key: "shape"
    value {
      shape {
        dim {
          size: 256
        }
      }
    }
  }
  attr {
    key: "shared_name"
    value {
      s: "bn2a_branch2c/moving_variance"
    }
  }
}
node {
  name: "bn2b_branch2a/moving_mean"
  op: "VarHandleOp"
  device: "/job:localhost/replica:0/task:0/device:GPU:0"
  attr {
    key: "_class"
    value {
      list {
        s: "loc:@bn2b_branch2a_1/AssignMovingAvg/AssignSubVariableOp"
      }
    }
  }
  attr {
    key: "container"
    value {
      s: ""
    }
  }
  attr {
    key: "dtype"
    value {
      type: DT_FLOAT
    }
  }
  attr {
    key: "shape"
    value {
      shape {
        dim {
          size: 64
        }
      }
    }
  }
  attr {
    key: "shared_name"
    value {
      s: "bn2b_branch2a/moving_mean"
    }
  }
}
node {
  name: "bn2b_branch2a/moving_variance"
  op: "VarHandleOp"
  device: "/job:localhost/replica:0/task:0/device:GPU:0"
  attr {
    key: "_class"
    value {
      list {
        s: "loc:@bn2b_branch2a_1/AssignMovingAvg_1/AssignSubVariableOp"
      }
    }
  }
  attr {
    key: "container"
    value {
      s: ""
    }
  }
  attr {
    key: "dtype"
    value {
      type: DT_FLOAT
    }
  }
  attr {
    key: "shape"
    value {
      shape {
        dim {
          size: 64
        }
      }
    }
  }
  attr {
    key: "shared_name"
    value {
      s: "bn2b_branch2a/moving_variance"
    }
  }
}
node {
  name: "bn2b_branch2b/moving_mean"
  op: "VarHandleOp"
  device: "/job:localhost/replica:0/task:0/device:GPU:0"
  attr {
    key: "_class"
    value {
      list {
        s: "loc:@bn2b_branch2b_1/AssignMovingAvg/AssignSubVariableOp"
      }
    }
  }
  attr {
    key: "container"
    value {
      s: ""
    }
  }
  attr {
    key: "dtype"
    value {
      type: DT_FLOAT
    }
  }
  attr {
    key: "shape"
    value {
      shape {
        dim {
          size: 64
        }
      }
    }
  }
  attr {
    key: "shared_name"
    value {
      s: "bn2b_branch2b/moving_mean"
    }
  }
}
node {
  name: "bn2b_branch2b/moving_variance"
  op: "VarHandleOp"
  device: "/job:localhost/replica:0/task:0/device:GPU:0"
  attr {
    key: "_class"
    value {
      list {
        s: "loc:@bn2b_branch2b_1/AssignMovingAvg_1/AssignSubVariableOp"
      }
    }
  }
  attr {
    key: "container"
    value {
      s: ""
    }
  }
  attr {
    key: "dtype"
    value {
      type: DT_FLOAT
    }
  }
  attr {
    key: "shape"
    value {
      shape {
        dim {
          size: 64
        }
      }
    }
  }
  attr {
    key: "shared_name"
    value {
      s: "bn2b_branch2b/moving_variance"
    }
  }
}
node {
  name: "bn2b_branch2c/moving_mean"
  op: "VarHandleOp"
  device: "/job:localhost/replica:0/task:0/device:GPU:0"
  attr {
    key: "_class"
    value {
      list {
        s: "loc:@bn2b_branch2c_1/AssignMovingAvg/AssignSubVariableOp"
      }
    }
  }
  attr {
    key: "container"
    value {
      s: ""
    }
  }
  attr {
    key: "dtype"
    value {
      type: DT_FLOAT
    }
  }
  attr {
    key: "shape"
    value {
      shape {
        dim {
          size: 256
        }
      }
    }
  }
  attr {
    key: "shared_name"
    value {
      s: "bn2b_branch2c/moving_mean"
    }
  }
}
node {
  name: "bn2b_branch2c/moving_variance"
  op: "VarHandleOp"
  device: "/job:localhost/replica:0/task:0/device:GPU:0"
  attr {
    key: "_class"
    value {
      list {
        s: "loc:@bn2b_branch2c_1/AssignMovingAvg_1/AssignSubVariableOp"
      }
    }
  }
  attr {
    key: "container"
    value {
      s: ""
    }
  }
  attr {
    key: "dtype"
    value {
      type: DT_FLOAT
    }
  }
  attr {
    key: "shape"
    value {
      shape {
        dim {
          size: 256
        }
      }
    }
  }
  attr {
    key: "shared_name"
    value {
      s: "bn2b_branch2c/moving_variance"
    }
  }
}
node {
  name: "bn2c_branch2a/moving_mean"
  op: "VarHandleOp"
  device: "/job:localhost/replica:0/task:0/device:GPU:0"
  attr {
    key: "_class"
    value {
      list {
        s: "loc:@bn2c_branch2a_1/AssignMovingAvg/AssignSubVariableOp"
      }
    }
  }
  attr {
    key: "container"
    value {
      s: ""
    }
  }
  attr {
    key: "dtype"
    value {
      type: DT_FLOAT
    }
  }
  attr {
    key: "shape"
    value {
      shape {
        dim {
          size: 64
        }
      }
    }
  }
  attr {
    key: "shared_name"
    value {
      s: "bn2c_branch2a/moving_mean"
    }
  }
}
node {
  name: "bn2c_branch2a/moving_variance"
  op: "VarHandleOp"
  device: "/job:localhost/replica:0/task:0/device:GPU:0"
  attr {
    key: "_class"
    value {
      list {
        s: "loc:@bn2c_branch2a_1/AssignMovingAvg_1/AssignSubVariableOp"
      }
    }
  }
  attr {
    key: "container"
    value {
      s: ""
    }
  }
  attr {
    key: "dtype"
    value {
      type: DT_FLOAT
    }
  }
  attr {
    key: "shape"
    value {
      shape {
        dim {
          size: 64
        }
      }
    }
  }
  attr {
    key: "shared_name"
    value {
      s: "bn2c_branch2a/moving_variance"
    }
  }
}
node {
  name: "bn2c_branch2b/moving_mean"
  op: "VarHandleOp"
  device: "/job:localhost/replica:0/task:0/device:GPU:0"
  attr {
    key: "_class"
    value {
      list {
        s: "loc:@bn2c_branch2b_1/AssignMovingAvg/AssignSubVariableOp"
      }
    }
  }
  attr {
    key: "container"
    value {
      s: ""
    }
  }
  attr {
    key: "dtype"
    value {
      type: DT_FLOAT
    }
  }
  attr {
    key: "shape"
    value {
      shape {
        dim {
          size: 64
        }
      }
    }
  }
  attr {
    key: "shared_name"
    value {
      s: "bn2c_branch2b/moving_mean"
    }
  }
}
node {
  name: "bn2c_branch2b/moving_variance"
  op: "VarHandleOp"
  device: "/job:localhost/replica:0/task:0/device:GPU:0"
  attr {
    key: "_class"
    value {
      list {
        s: "loc:@bn2c_branch2b_1/AssignMovingAvg_1/AssignSubVariableOp"
      }
    }
  }
  attr {
    key: "container"
    value {
      s: ""
    }
  }
  attr {
    key: "dtype"
    value {
      type: DT_FLOAT
    }
  }
  attr {
    key: "shape"
    value {
      shape {
        dim {
          size: 64
        }
      }
    }
  }
  attr {
    key: "shared_name"
    value {
      s: "bn2c_branch2b/moving_variance"
    }
  }
}
node {
  name: "bn2c_branch2c/moving_mean"
  op: "VarHandleOp"
  device: "/job:localhost/replica:0/task:0/device:GPU:0"
  attr {
    key: "_class"
    value {
      list {
        s: "loc:@bn2c_branch2c_1/AssignMovingAvg/AssignSubVariableOp"
      }
    }
  }
  attr {
    key: "container"
    value {
      s: ""
    }
  }
  attr {
    key: "dtype"
    value {
      type: DT_FLOAT
    }
  }
  attr {
    key: "shape"
    value {
      shape {
        dim {
          size: 256
        }
      }
    }
  }
  attr {
    key: "shared_name"
    value {
      s: "bn2c_branch2c/moving_mean"
    }
  }
}
node {
  name: "bn2c_branch2c/moving_variance"
  op: "VarHandleOp"
  device: "/job:localhost/replica:0/task:0/device:GPU:0"
  attr {
    key: "_class"
    value {
      list {
        s: "loc:@bn2c_branch2c_1/AssignMovingAvg_1/AssignSubVariableOp"
      }
    }
  }
  attr {
    key: "container"
    value {
      s: ""
    }
  }
  attr {
    key: "dtype"
    value {
      type: DT_FLOAT
    }
  }
  attr {
    key: "shape"
    value {
      shape {
        dim {
          size: 256
        }
      }
    }
  }
  attr {
    key: "shared_name"
    value {
      s: "bn2c_branch2c/moving_variance"
    }
  }
}
node {
  name: "bn3a_branch1/moving_mean"
  op: "VarHandleOp"
  device: "/job:localhost/replica:0/task:0/device:GPU:0"
  attr {
    key: "_class"
    value {
      list {
        s: "loc:@bn3a_branch1_1/AssignMovingAvg/AssignSubVariableOp"
      }
    }
  }
  attr {
    key: "container"
    value {
      s: ""
    }
  }
  attr {
    key: "dtype"
    value {
      type: DT_FLOAT
    }
  }
  attr {
    key: "shape"
    value {
      shape {
        dim {
          size: 512
        }
      }
    }
  }
  attr {
    key: "shared_name"
    value {
      s: "bn3a_branch1/moving_mean"
    }
  }
}
node {
  name: "bn3a_branch1/moving_variance"
  op: "VarHandleOp"
  device: "/job:localhost/replica:0/task:0/device:GPU:0"
  attr {
    key: "_class"
    value {
      list {
        s: "loc:@bn3a_branch1_1/AssignMovingAvg_1/AssignSubVariableOp"
      }
    }
  }
  attr {
    key: "container"
    value {
      s: ""
    }
  }
  attr {
    key: "dtype"
    value {
      type: DT_FLOAT
    }
  }
  attr {
    key: "shape"
    value {
      shape {
        dim {
          size: 512
        }
      }
    }
  }
  attr {
    key: "shared_name"
    value {
      s: "bn3a_branch1/moving_variance"
    }
  }
}
node {
  name: "bn3a_branch2a/moving_mean"
  op: "VarHandleOp"
  device: "/job:localhost/replica:0/task:0/device:GPU:0"
  attr {
    key: "_class"
    value {
      list {
        s: "loc:@bn3a_branch2a_1/AssignMovingAvg/AssignSubVariableOp"
      }
    }
  }
  attr {
    key: "container"
    value {
      s: ""
    }
  }
  attr {
    key: "dtype"
    value {
      type: DT_FLOAT
    }
  }
  attr {
    key: "shape"
    value {
      shape {
        dim {
          size: 128
        }
      }
    }
  }
  attr {
    key: "shared_name"
    value {
      s: "bn3a_branch2a/moving_mean"
    }
  }
}
node {
  name: "bn3a_branch2a/moving_variance"
  op: "VarHandleOp"
  device: "/job:localhost/replica:0/task:0/device:GPU:0"
  attr {
    key: "_class"
    value {
      list {
        s: "loc:@bn3a_branch2a_1/AssignMovingAvg_1/AssignSubVariableOp"
      }
    }
  }
  attr {
    key: "container"
    value {
      s: ""
    }
  }
  attr {
    key: "dtype"
    value {
      type: DT_FLOAT
    }
  }
  attr {
    key: "shape"
    value {
      shape {
        dim {
          size: 128
        }
      }
    }
  }
  attr {
    key: "shared_name"
    value {
      s: "bn3a_branch2a/moving_variance"
    }
  }
}
node {
  name: "bn3a_branch2b/moving_mean"
  op: "VarHandleOp"
  device: "/job:localhost/replica:0/task:0/device:GPU:0"
  attr {
    key: "_class"
    value {
      list {
        s: "loc:@bn3a_branch2b_1/AssignMovingAvg/AssignSubVariableOp"
      }
    }
  }
  attr {
    key: "container"
    value {
      s: ""
    }
  }
  attr {
    key: "dtype"
    value {
      type: DT_FLOAT
    }
  }
  attr {
    key: "shape"
    value {
      shape {
        dim {
          size: 128
        }
      }
    }
  }
  attr {
    key: "shared_name"
    value {
      s: "bn3a_branch2b/moving_mean"
    }
  }
}
node {
  name: "bn3a_branch2b/moving_variance"
  op: "VarHandleOp"
  device: "/job:localhost/replica:0/task:0/device:GPU:0"
  attr {
    key: "_class"
    value {
      list {
        s: "loc:@bn3a_branch2b_1/AssignMovingAvg_1/AssignSubVariableOp"
      }
    }
  }
  attr {
    key: "container"
    value {
      s: ""
    }
  }
  attr {
    key: "dtype"
    value {
      type: DT_FLOAT
    }
  }
  attr {
    key: "shape"
    value {
      shape {
        dim {
          size: 128
        }
      }
    }
  }
  attr {
    key: "shared_name"
    value {
      s: "bn3a_branch2b/moving_variance"
    }
  }
}
node {
  name: "bn3a_branch2c/moving_mean"
  op: "VarHandleOp"
  device: "/job:localhost/replica:0/task:0/device:GPU:0"
  attr {
    key: "_class"
    value {
      list {
        s: "loc:@bn3a_branch2c_1/AssignMovingAvg/AssignSubVariableOp"
      }
    }
  }
  attr {
    key: "container"
    value {
      s: ""
    }
  }
  attr {
    key: "dtype"
    value {
      type: DT_FLOAT
    }
  }
  attr {
    key: "shape"
    value {
      shape {
        dim {
          size: 512
        }
      }
    }
  }
  attr {
    key: "shared_name"
    value {
      s: "bn3a_branch2c/moving_mean"
    }
  }
}
node {
  name: "bn3a_branch2c/moving_variance"
  op: "VarHandleOp"
  device: "/job:localhost/replica:0/task:0/device:GPU:0"
  attr {
    key: "_class"
    value {
      list {
        s: "loc:@bn3a_branch2c_1/AssignMovingAvg_1/AssignSubVariableOp"
      }
    }
  }
  attr {
    key: "container"
    value {
      s: ""
    }
  }
  attr {
    key: "dtype"
    value {
      type: DT_FLOAT
    }
  }
  attr {
    key: "shape"
    value {
      shape {
        dim {
          size: 512
        }
      }
    }
  }
  attr {
    key: "shared_name"
    value {
      s: "bn3a_branch2c/moving_variance"
    }
  }
}
node {
  name: "bn3b_branch2a/moving_mean"
  op: "VarHandleOp"
  device: "/job:localhost/replica:0/task:0/device:GPU:0"
  attr {
    key: "_class"
    value {
      list {
        s: "loc:@bn3b_branch2a_1/AssignMovingAvg/AssignSubVariableOp"
      }
    }
  }
  attr {
    key: "container"
    value {
      s: ""
    }
  }
  attr {
    key: "dtype"
    value {
      type: DT_FLOAT
    }
  }
  attr {
    key: "shape"
    value {
      shape {
        dim {
          size: 128
        }
      }
    }
  }
  attr {
    key: "shared_name"
    value {
      s: "bn3b_branch2a/moving_mean"
    }
  }
}
node {
  name: "bn3b_branch2a/moving_variance"
  op: "VarHandleOp"
  device: "/job:localhost/replica:0/task:0/device:GPU:0"
  attr {
    key: "_class"
    value {
      list {
        s: "loc:@bn3b_branch2a_1/AssignMovingAvg_1/AssignSubVariableOp"
      }
    }
  }
  attr {
    key: "container"
    value {
      s: ""
    }
  }
  attr {
    key: "dtype"
    value {
      type: DT_FLOAT
    }
  }
  attr {
    key: "shape"
    value {
      shape {
        dim {
          size: 128
        }
      }
    }
  }
  attr {
    key: "shared_name"
    value {
      s: "bn3b_branch2a/moving_variance"
    }
  }
}
node {
  name: "bn3b_branch2b/moving_mean"
  op: "VarHandleOp"
  device: "/job:localhost/replica:0/task:0/device:GPU:0"
  attr {
    key: "_class"
    value {
      list {
        s: "loc:@bn3b_branch2b_1/AssignMovingAvg/AssignSubVariableOp"
      }
    }
  }
  attr {
    key: "container"
    value {
      s: ""
    }
  }
  attr {
    key: "dtype"
    value {
      type: DT_FLOAT
    }
  }
  attr {
    key: "shape"
    value {
      shape {
        dim {
          size: 128
        }
      }
    }
  }
  attr {
    key: "shared_name"
    value {
      s: "bn3b_branch2b/moving_mean"
    }
  }
}
node {
  name: "bn3b_branch2b/moving_variance"
  op: "VarHandleOp"
  device: "/job:localhost/replica:0/task:0/device:GPU:0"
  attr {
    key: "_class"
    value {
      list {
        s: "loc:@bn3b_branch2b_1/AssignMovingAvg_1/AssignSubVariableOp"
      }
    }
  }
  attr {
    key: "container"
    value {
      s: ""
    }
  }
  attr {
    key: "dtype"
    value {
      type: DT_FLOAT
    }
  }
  attr {
    key: "shape"
    value {
      shape {
        dim {
          size: 128
        }
      }
    }
  }
  attr {
    key: "shared_name"
    value {
      s: "bn3b_branch2b/moving_variance"
    }
  }
}
node {
  name: "bn3b_branch2c/moving_mean"
  op: "VarHandleOp"
  device: "/job:localhost/replica:0/task:0/device:GPU:0"
  attr {
    key: "_class"
    value {
      list {
        s: "loc:@bn3b_branch2c_1/AssignMovingAvg/AssignSubVariableOp"
      }
    }
  }
  attr {
    key: "container"
    value {
      s: ""
    }
  }
  attr {
    key: "dtype"
    value {
      type: DT_FLOAT
    }
  }
  attr {
    key: "shape"
    value {
      shape {
        dim {
          size: 512
        }
      }
    }
  }
  attr {
    key: "shared_name"
    value {
      s: "bn3b_branch2c/moving_mean"
    }
  }
}
node {
  name: "bn3b_branch2c/moving_variance"
  op: "VarHandleOp"
  device: "/job:localhost/replica:0/task:0/device:GPU:0"
  attr {
    key: "_class"
    value {
      list {
        s: "loc:@bn3b_branch2c_1/AssignMovingAvg_1/AssignSubVariableOp"
      }
    }
  }
  attr {
    key: "container"
    value {
      s: ""
    }
  }
  attr {
    key: "dtype"
    value {
      type: DT_FLOAT
    }
  }
  attr {
    key: "shape"
    value {
      shape {
        dim {
          size: 512
        }
      }
    }
  }
  attr {
    key: "shared_name"
    value {
      s: "bn3b_branch2c/moving_variance"
    }
  }
}
node {
  name: "bn3c_branch2a/moving_mean"
  op: "VarHandleOp"
  device: "/job:localhost/replica:0/task:0/device:GPU:0"
  attr {
    key: "_class"
    value {
      list {
        s: "loc:@bn3c_branch2a_1/AssignMovingAvg/AssignSubVariableOp"
      }
    }
  }
  attr {
    key: "container"
    value {
      s: ""
    }
  }
  attr {
    key: "dtype"
    value {
      type: DT_FLOAT
    }
  }
  attr {
    key: "shape"
    value {
      shape {
        dim {
          size: 128
        }
      }
    }
  }
  attr {
    key: "shared_name"
    value {
      s: "bn3c_branch2a/moving_mean"
    }
  }
}
node {
  name: "bn3c_branch2a/moving_variance"
  op: "VarHandleOp"
  device: "/job:localhost/replica:0/task:0/device:GPU:0"
  attr {
    key: "_class"
    value {
      list {
        s: "loc:@bn3c_branch2a_1/AssignMovingAvg_1/AssignSubVariableOp"
      }
    }
  }
  attr {
    key: "container"
    value {
      s: ""
    }
  }
  attr {
    key: "dtype"
    value {
      type: DT_FLOAT
    }
  }
  attr {
    key: "shape"
    value {
      shape {
        dim {
          size: 128
        }
      }
    }
  }
  attr {
    key: "shared_name"
    value {
      s: "bn3c_branch2a/moving_variance"
    }
  }
}
node {
  name: "bn3c_branch2b/moving_mean"
  op: "VarHandleOp"
  device: "/job:localhost/replica:0/task:0/device:GPU:0"
  attr {
    key: "_class"
    value {
      list {
        s: "loc:@bn3c_branch2b_1/AssignMovingAvg/AssignSubVariableOp"
      }
    }
  }
  attr {
    key: "container"
    value {
      s: ""
    }
  }
  attr {
    key: "dtype"
    value {
      type: DT_FLOAT
    }
  }
  attr {
    key: "shape"
    value {
      shape {
        dim {
          size: 128
        }
      }
    }
  }
  attr {
    key: "shared_name"
    value {
      s: "bn3c_branch2b/moving_mean"
    }
  }
}
node {
  name: "bn3c_branch2b/moving_variance"
  op: "VarHandleOp"
  device: "/job:localhost/replica:0/task:0/device:GPU:0"
  attr {
    key: "_class"
    value {
      list {
        s: "loc:@bn3c_branch2b_1/AssignMovingAvg_1/AssignSubVariableOp"
      }
    }
  }
  attr {
    key: "container"
    value {
      s: ""
    }
  }
  attr {
    key: "dtype"
    value {
      type: DT_FLOAT
    }
  }
  attr {
    key: "shape"
    value {
      shape {
        dim {
          size: 128
        }
      }
    }
  }
  attr {
    key: "shared_name"
    value {
      s: "bn3c_branch2b/moving_variance"
    }
  }
}
node {
  name: "bn3c_branch2c/moving_mean"
  op: "VarHandleOp"
  device: "/job:localhost/replica:0/task:0/device:GPU:0"
  attr {
    key: "_class"
    value {
      list {
        s: "loc:@bn3c_branch2c_1/AssignMovingAvg/AssignSubVariableOp"
      }
    }
  }
  attr {
    key: "container"
    value {
      s: ""
    }
  }
  attr {
    key: "dtype"
    value {
      type: DT_FLOAT
    }
  }
  attr {
    key: "shape"
    value {
      shape {
        dim {
          size: 512
        }
      }
    }
  }
  attr {
    key: "shared_name"
    value {
      s: "bn3c_branch2c/moving_mean"
    }
  }
}
node {
  name: "bn3c_branch2c/moving_variance"
  op: "VarHandleOp"
  device: "/job:localhost/replica:0/task:0/device:GPU:0"
  attr {
    key: "_class"
    value {
      list {
        s: "loc:@bn3c_branch2c_1/AssignMovingAvg_1/AssignSubVariableOp"
      }
    }
  }
  attr {
    key: "container"
    value {
      s: ""
    }
  }
  attr {
    key: "dtype"
    value {
      type: DT_FLOAT
    }
  }
  attr {
    key: "shape"
    value {
      shape {
        dim {
          size: 512
        }
      }
    }
  }
  attr {
    key: "shared_name"
    value {
      s: "bn3c_branch2c/moving_variance"
    }
  }
}
node {
  name: "bn3d_branch2a/moving_mean"
  op: "VarHandleOp"
  device: "/job:localhost/replica:0/task:0/device:GPU:0"
  attr {
    key: "_class"
    value {
      list {
        s: "loc:@bn3d_branch2a_1/AssignMovingAvg/AssignSubVariableOp"
      }
    }
  }
  attr {
    key: "container"
    value {
      s: ""
    }
  }
  attr {
    key: "dtype"
    value {
      type: DT_FLOAT
    }
  }
  attr {
    key: "shape"
    value {
      shape {
        dim {
          size: 128
        }
      }
    }
  }
  attr {
    key: "shared_name"
    value {
      s: "bn3d_branch2a/moving_mean"
    }
  }
}
node {
  name: "bn3d_branch2a/moving_variance"
  op: "VarHandleOp"
  device: "/job:localhost/replica:0/task:0/device:GPU:0"
  attr {
    key: "_class"
    value {
      list {
        s: "loc:@bn3d_branch2a_1/AssignMovingAvg_1/AssignSubVariableOp"
      }
    }
  }
  attr {
    key: "container"
    value {
      s: ""
    }
  }
  attr {
    key: "dtype"
    value {
      type: DT_FLOAT
    }
  }
  attr {
    key: "shape"
    value {
      shape {
        dim {
          size: 128
        }
      }
    }
  }
  attr {
    key: "shared_name"
    value {
      s: "bn3d_branch2a/moving_variance"
    }
  }
}
node {
  name: "bn3d_branch2b/moving_mean"
  op: "VarHandleOp"
  device: "/job:localhost/replica:0/task:0/device:GPU:0"
  attr {
    key: "_class"
    value {
      list {
        s: "loc:@bn3d_branch2b_1/AssignMovingAvg/AssignSubVariableOp"
      }
    }
  }
  attr {
    key: "container"
    value {
      s: ""
    }
  }
  attr {
    key: "dtype"
    value {
      type: DT_FLOAT
    }
  }
  attr {
    key: "shape"
    value {
      shape {
        dim {
          size: 128
        }
      }
    }
  }
  attr {
    key: "shared_name"
    value {
      s: "bn3d_branch2b/moving_mean"
    }
  }
}
node {
  name: "bn3d_branch2b/moving_variance"
  op: "VarHandleOp"
  device: "/job:localhost/replica:0/task:0/device:GPU:0"
  attr {
    key: "_class"
    value {
      list {
        s: "loc:@bn3d_branch2b_1/AssignMovingAvg_1/AssignSubVariableOp"
      }
    }
  }
  attr {
    key: "container"
    value {
      s: ""
    }
  }
  attr {
    key: "dtype"
    value {
      type: DT_FLOAT
    }
  }
  attr {
    key: "shape"
    value {
      shape {
        dim {
          size: 128
        }
      }
    }
  }
  attr {
    key: "shared_name"
    value {
      s: "bn3d_branch2b/moving_variance"
    }
  }
}
node {
  name: "bn3d_branch2c/moving_mean"
  op: "VarHandleOp"
  device: "/job:localhost/replica:0/task:0/device:GPU:0"
  attr {
    key: "_class"
    value {
      list {
        s: "loc:@bn3d_branch2c_1/AssignMovingAvg/AssignSubVariableOp"
      }
    }
  }
  attr {
    key: "container"
    value {
      s: ""
    }
  }
  attr {
    key: "dtype"
    value {
      type: DT_FLOAT
    }
  }
  attr {
    key: "shape"
    value {
      shape {
        dim {
          size: 512
        }
      }
    }
  }
  attr {
    key: "shared_name"
    value {
      s: "bn3d_branch2c/moving_mean"
    }
  }
}
node {
  name: "bn3d_branch2c/moving_variance"
  op: "VarHandleOp"
  device: "/job:localhost/replica:0/task:0/device:GPU:0"
  attr {
    key: "_class"
    value {
      list {
        s: "loc:@bn3d_branch2c_1/AssignMovingAvg_1/AssignSubVariableOp"
      }
    }
  }
  attr {
    key: "container"
    value {
      s: ""
    }
  }
  attr {
    key: "dtype"
    value {
      type: DT_FLOAT
    }
  }
  attr {
    key: "shape"
    value {
      shape {
        dim {
          size: 512
        }
      }
    }
  }
  attr {
    key: "shared_name"
    value {
      s: "bn3d_branch2c/moving_variance"
    }
  }
}
node {
  name: "bn4a_branch1/moving_mean"
  op: "VarHandleOp"
  device: "/job:localhost/replica:0/task:0/device:GPU:0"
  attr {
    key: "_class"
    value {
      list {
        s: "loc:@bn4a_branch1_1/AssignMovingAvg/AssignSubVariableOp"
      }
    }
  }
  attr {
    key: "container"
    value {
      s: ""
    }
  }
  attr {
    key: "dtype"
    value {
      type: DT_FLOAT
    }
  }
  attr {
    key: "shape"
    value {
      shape {
        dim {
          size: 1024
        }
      }
    }
  }
  attr {
    key: "shared_name"
    value {
      s: "bn4a_branch1/moving_mean"
    }
  }
}
node {
  name: "bn4a_branch1/moving_variance"
  op: "VarHandleOp"
  device: "/job:localhost/replica:0/task:0/device:GPU:0"
  attr {
    key: "_class"
    value {
      list {
        s: "loc:@bn4a_branch1_1/AssignMovingAvg_1/AssignSubVariableOp"
      }
    }
  }
  attr {
    key: "container"
    value {
      s: ""
    }
  }
  attr {
    key: "dtype"
    value {
      type: DT_FLOAT
    }
  }
  attr {
    key: "shape"
    value {
      shape {
        dim {
          size: 1024
        }
      }
    }
  }
  attr {
    key: "shared_name"
    value {
      s: "bn4a_branch1/moving_variance"
    }
  }
}
node {
  name: "bn4a_branch2a/moving_mean"
  op: "VarHandleOp"
  device: "/job:localhost/replica:0/task:0/device:GPU:0"
  attr {
    key: "_class"
    value {
      list {
        s: "loc:@bn4a_branch2a_1/AssignMovingAvg/AssignSubVariableOp"
      }
    }
  }
  attr {
    key: "container"
    value {
      s: ""
    }
  }
  attr {
    key: "dtype"
    value {
      type: DT_FLOAT
    }
  }
  attr {
    key: "shape"
    value {
      shape {
        dim {
          size: 256
        }
      }
    }
  }
  attr {
    key: "shared_name"
    value {
      s: "bn4a_branch2a/moving_mean"
    }
  }
}
node {
  name: "bn4a_branch2a/moving_variance"
  op: "VarHandleOp"
  device: "/job:localhost/replica:0/task:0/device:GPU:0"
  attr {
    key: "_class"
    value {
      list {
        s: "loc:@bn4a_branch2a_1/AssignMovingAvg_1/AssignSubVariableOp"
      }
    }
  }
  attr {
    key: "container"
    value {
      s: ""
    }
  }
  attr {
    key: "dtype"
    value {
      type: DT_FLOAT
    }
  }
  attr {
    key: "shape"
    value {
      shape {
        dim {
          size: 256
        }
      }
    }
  }
  attr {
    key: "shared_name"
    value {
      s: "bn4a_branch2a/moving_variance"
    }
  }
}
node {
  name: "bn4a_branch2b/moving_mean"
  op: "VarHandleOp"
  device: "/job:localhost/replica:0/task:0/device:GPU:0"
  attr {
    key: "_class"
    value {
      list {
        s: "loc:@bn4a_branch2b_1/AssignMovingAvg/AssignSubVariableOp"
      }
    }
  }
  attr {
    key: "container"
    value {
      s: ""
    }
  }
  attr {
    key: "dtype"
    value {
      type: DT_FLOAT
    }
  }
  attr {
    key: "shape"
    value {
      shape {
        dim {
          size: 256
        }
      }
    }
  }
  attr {
    key: "shared_name"
    value {
      s: "bn4a_branch2b/moving_mean"
    }
  }
}
node {
  name: "bn4a_branch2b/moving_variance"
  op: "VarHandleOp"
  device: "/job:localhost/replica:0/task:0/device:GPU:0"
  attr {
    key: "_class"
    value {
      list {
        s: "loc:@bn4a_branch2b_1/AssignMovingAvg_1/AssignSubVariableOp"
      }
    }
  }
  attr {
    key: "container"
    value {
      s: ""
    }
  }
  attr {
    key: "dtype"
    value {
      type: DT_FLOAT
    }
  }
  attr {
    key: "shape"
    value {
      shape {
        dim {
          size: 256
        }
      }
    }
  }
  attr {
    key: "shared_name"
    value {
      s: "bn4a_branch2b/moving_variance"
    }
  }
}
node {
  name: "bn4a_branch2c/moving_mean"
  op: "VarHandleOp"
  device: "/job:localhost/replica:0/task:0/device:GPU:0"
  attr {
    key: "_class"
    value {
      list {
        s: "loc:@bn4a_branch2c_1/AssignMovingAvg/AssignSubVariableOp"
      }
    }
  }
  attr {
    key: "container"
    value {
      s: ""
    }
  }
  attr {
    key: "dtype"
    value {
      type: DT_FLOAT
    }
  }
  attr {
    key: "shape"
    value {
      shape {
        dim {
          size: 1024
        }
      }
    }
  }
  attr {
    key: "shared_name"
    value {
      s: "bn4a_branch2c/moving_mean"
    }
  }
}
node {
  name: "bn4a_branch2c/moving_variance"
  op: "VarHandleOp"
  device: "/job:localhost/replica:0/task:0/device:GPU:0"
  attr {
    key: "_class"
    value {
      list {
        s: "loc:@bn4a_branch2c_1/AssignMovingAvg_1/AssignSubVariableOp"
      }
    }
  }
  attr {
    key: "container"
    value {
      s: ""
    }
  }
  attr {
    key: "dtype"
    value {
      type: DT_FLOAT
    }
  }
  attr {
    key: "shape"
    value {
      shape {
        dim {
          size: 1024
        }
      }
    }
  }
  attr {
    key: "shared_name"
    value {
      s: "bn4a_branch2c/moving_variance"
    }
  }
}
node {
  name: "bn4b_branch2a/moving_mean"
  op: "VarHandleOp"
  device: "/job:localhost/replica:0/task:0/device:GPU:0"
  attr {
    key: "_class"
    value {
      list {
        s: "loc:@bn4b_branch2a_1/AssignMovingAvg/AssignSubVariableOp"
      }
    }
  }
  attr {
    key: "container"
    value {
      s: ""
    }
  }
  attr {
    key: "dtype"
    value {
      type: DT_FLOAT
    }
  }
  attr {
    key: "shape"
    value {
      shape {
        dim {
          size: 256
        }
      }
    }
  }
  attr {
    key: "shared_name"
    value {
      s: "bn4b_branch2a/moving_mean"
    }
  }
}
node {
  name: "bn4b_branch2a/moving_variance"
  op: "VarHandleOp"
  device: "/job:localhost/replica:0/task:0/device:GPU:0"
  attr {
    key: "_class"
    value {
      list {
        s: "loc:@bn4b_branch2a_1/AssignMovingAvg_1/AssignSubVariableOp"
      }
    }
  }
  attr {
    key: "container"
    value {
      s: ""
    }
  }
  attr {
    key: "dtype"
    value {
      type: DT_FLOAT
    }
  }
  attr {
    key: "shape"
    value {
      shape {
        dim {
          size: 256
        }
      }
    }
  }
  attr {
    key: "shared_name"
    value {
      s: "bn4b_branch2a/moving_variance"
    }
  }
}
node {
  name: "bn4b_branch2b/moving_mean"
  op: "VarHandleOp"
  device: "/job:localhost/replica:0/task:0/device:GPU:0"
  attr {
    key: "_class"
    value {
      list {
        s: "loc:@bn4b_branch2b_1/AssignMovingAvg/AssignSubVariableOp"
      }
    }
  }
  attr {
    key: "container"
    value {
      s: ""
    }
  }
  attr {
    key: "dtype"
    value {
      type: DT_FLOAT
    }
  }
  attr {
    key: "shape"
    value {
      shape {
        dim {
          size: 256
        }
      }
    }
  }
  attr {
    key: "shared_name"
    value {
      s: "bn4b_branch2b/moving_mean"
    }
  }
}
node {
  name: "bn4b_branch2b/moving_variance"
  op: "VarHandleOp"
  device: "/job:localhost/replica:0/task:0/device:GPU:0"
  attr {
    key: "_class"
    value {
      list {
        s: "loc:@bn4b_branch2b_1/AssignMovingAvg_1/AssignSubVariableOp"
      }
    }
  }
  attr {
    key: "container"
    value {
      s: ""
    }
  }
  attr {
    key: "dtype"
    value {
      type: DT_FLOAT
    }
  }
  attr {
    key: "shape"
    value {
      shape {
        dim {
          size: 256
        }
      }
    }
  }
  attr {
    key: "shared_name"
    value {
      s: "bn4b_branch2b/moving_variance"
    }
  }
}
node {
  name: "bn4b_branch2c/moving_mean"
  op: "VarHandleOp"
  device: "/job:localhost/replica:0/task:0/device:GPU:0"
  attr {
    key: "_class"
    value {
      list {
        s: "loc:@bn4b_branch2c_1/AssignMovingAvg/AssignSubVariableOp"
      }
    }
  }
  attr {
    key: "container"
    value {
      s: ""
    }
  }
  attr {
    key: "dtype"
    value {
      type: DT_FLOAT
    }
  }
  attr {
    key: "shape"
    value {
      shape {
        dim {
          size: 1024
        }
      }
    }
  }
  attr {
    key: "shared_name"
    value {
      s: "bn4b_branch2c/moving_mean"
    }
  }
}
node {
  name: "bn4b_branch2c/moving_variance"
  op: "VarHandleOp"
  device: "/job:localhost/replica:0/task:0/device:GPU:0"
  attr {
    key: "_class"
    value {
      list {
        s: "loc:@bn4b_branch2c_1/AssignMovingAvg_1/AssignSubVariableOp"
      }
    }
  }
  attr {
    key: "container"
    value {
      s: ""
    }
  }
  attr {
    key: "dtype"
    value {
      type: DT_FLOAT
    }
  }
  attr {
    key: "shape"
    value {
      shape {
        dim {
          size: 1024
        }
      }
    }
  }
  attr {
    key: "shared_name"
    value {
      s: "bn4b_branch2c/moving_variance"
    }
  }
}
node {
  name: "bn4c_branch2a/moving_mean"
  op: "VarHandleOp"
  device: "/job:localhost/replica:0/task:0/device:GPU:0"
  attr {
    key: "_class"
    value {
      list {
        s: "loc:@bn4c_branch2a_1/AssignMovingAvg/AssignSubVariableOp"
      }
    }
  }
  attr {
    key: "container"
    value {
      s: ""
    }
  }
  attr {
    key: "dtype"
    value {
      type: DT_FLOAT
    }
  }
  attr {
    key: "shape"
    value {
      shape {
        dim {
          size: 256
        }
      }
    }
  }
  attr {
    key: "shared_name"
    value {
      s: "bn4c_branch2a/moving_mean"
    }
  }
}
node {
  name: "bn4c_branch2a/moving_variance"
  op: "VarHandleOp"
  device: "/job:localhost/replica:0/task:0/device:GPU:0"
  attr {
    key: "_class"
    value {
      list {
        s: "loc:@bn4c_branch2a_1/AssignMovingAvg_1/AssignSubVariableOp"
      }
    }
  }
  attr {
    key: "container"
    value {
      s: ""
    }
  }
  attr {
    key: "dtype"
    value {
      type: DT_FLOAT
    }
  }
  attr {
    key: "shape"
    value {
      shape {
        dim {
          size: 256
        }
      }
    }
  }
  attr {
    key: "shared_name"
    value {
      s: "bn4c_branch2a/moving_variance"
    }
  }
}
node {
  name: "bn4c_branch2b/moving_mean"
  op: "VarHandleOp"
  device: "/job:localhost/replica:0/task:0/device:GPU:0"
  attr {
    key: "_class"
    value {
      list {
        s: "loc:@bn4c_branch2b_1/AssignMovingAvg/AssignSubVariableOp"
      }
    }
  }
  attr {
    key: "container"
    value {
      s: ""
    }
  }
  attr {
    key: "dtype"
    value {
      type: DT_FLOAT
    }
  }
  attr {
    key: "shape"
    value {
      shape {
        dim {
          size: 256
        }
      }
    }
  }
  attr {
    key: "shared_name"
    value {
      s: "bn4c_branch2b/moving_mean"
    }
  }
}
node {
  name: "bn4c_branch2b/moving_variance"
  op: "VarHandleOp"
  device: "/job:localhost/replica:0/task:0/device:GPU:0"
  attr {
    key: "_class"
    value {
      list {
        s: "loc:@bn4c_branch2b_1/AssignMovingAvg_1/AssignSubVariableOp"
      }
    }
  }
  attr {
    key: "container"
    value {
      s: ""
    }
  }
  attr {
    key: "dtype"
    value {
      type: DT_FLOAT
    }
  }
  attr {
    key: "shape"
    value {
      shape {
        dim {
          size: 256
        }
      }
    }
  }
  attr {
    key: "shared_name"
    value {
      s: "bn4c_branch2b/moving_variance"
    }
  }
}
node {
  name: "bn4c_branch2c/moving_mean"
  op: "VarHandleOp"
  device: "/job:localhost/replica:0/task:0/device:GPU:0"
  attr {
    key: "_class"
    value {
      list {
        s: "loc:@bn4c_branch2c_1/AssignMovingAvg/AssignSubVariableOp"
      }
    }
  }
  attr {
    key: "container"
    value {
      s: ""
    }
  }
  attr {
    key: "dtype"
    value {
      type: DT_FLOAT
    }
  }
  attr {
    key: "shape"
    value {
      shape {
        dim {
          size: 1024
        }
      }
    }
  }
  attr {
    key: "shared_name"
    value {
      s: "bn4c_branch2c/moving_mean"
    }
  }
}
node {
  name: "bn4c_branch2c/moving_variance"
  op: "VarHandleOp"
  device: "/job:localhost/replica:0/task:0/device:GPU:0"
  attr {
    key: "_class"
    value {
      list {
        s: "loc:@bn4c_branch2c_1/AssignMovingAvg_1/AssignSubVariableOp"
      }
    }
  }
  attr {
    key: "container"
    value {
      s: ""
    }
  }
  attr {
    key: "dtype"
    value {
      type: DT_FLOAT
    }
  }
  attr {
    key: "shape"
    value {
      shape {
        dim {
          size: 1024
        }
      }
    }
  }
  attr {
    key: "shared_name"
    value {
      s: "bn4c_branch2c/moving_variance"
    }
  }
}
node {
  name: "bn4d_branch2a/moving_mean"
  op: "VarHandleOp"
  device: "/job:localhost/replica:0/task:0/device:GPU:0"
  attr {
    key: "_class"
    value {
      list {
        s: "loc:@bn4d_branch2a_1/AssignMovingAvg/AssignSubVariableOp"
      }
    }
  }
  attr {
    key: "container"
    value {
      s: ""
    }
  }
  attr {
    key: "dtype"
    value {
      type: DT_FLOAT
    }
  }
  attr {
    key: "shape"
    value {
      shape {
        dim {
          size: 256
        }
      }
    }
  }
  attr {
    key: "shared_name"
    value {
      s: "bn4d_branch2a/moving_mean"
    }
  }
}
node {
  name: "bn4d_branch2a/moving_variance"
  op: "VarHandleOp"
  device: "/job:localhost/replica:0/task:0/device:GPU:0"
  attr {
    key: "_class"
    value {
      list {
        s: "loc:@bn4d_branch2a_1/AssignMovingAvg_1/AssignSubVariableOp"
      }
    }
  }
  attr {
    key: "container"
    value {
      s: ""
    }
  }
  attr {
    key: "dtype"
    value {
      type: DT_FLOAT
    }
  }
  attr {
    key: "shape"
    value {
      shape {
        dim {
          size: 256
        }
      }
    }
  }
  attr {
    key: "shared_name"
    value {
      s: "bn4d_branch2a/moving_variance"
    }
  }
}
node {
  name: "bn4d_branch2b/moving_mean"
  op: "VarHandleOp"
  device: "/job:localhost/replica:0/task:0/device:GPU:0"
  attr {
    key: "_class"
    value {
      list {
        s: "loc:@bn4d_branch2b_1/AssignMovingAvg/AssignSubVariableOp"
      }
    }
  }
  attr {
    key: "container"
    value {
      s: ""
    }
  }
  attr {
    key: "dtype"
    value {
      type: DT_FLOAT
    }
  }
  attr {
    key: "shape"
    value {
      shape {
        dim {
          size: 256
        }
      }
    }
  }
  attr {
    key: "shared_name"
    value {
      s: "bn4d_branch2b/moving_mean"
    }
  }
}
node {
  name: "bn4d_branch2b/moving_variance"
  op: "VarHandleOp"
  device: "/job:localhost/replica:0/task:0/device:GPU:0"
  attr {
    key: "_class"
    value {
      list {
        s: "loc:@bn4d_branch2b_1/AssignMovingAvg_1/AssignSubVariableOp"
      }
    }
  }
  attr {
    key: "container"
    value {
      s: ""
    }
  }
  attr {
    key: "dtype"
    value {
      type: DT_FLOAT
    }
  }
  attr {
    key: "shape"
    value {
      shape {
        dim {
          size: 256
        }
      }
    }
  }
  attr {
    key: "shared_name"
    value {
      s: "bn4d_branch2b/moving_variance"
    }
  }
}
node {
  name: "bn4d_branch2c/moving_mean"
  op: "VarHandleOp"
  device: "/job:localhost/replica:0/task:0/device:GPU:0"
  attr {
    key: "_class"
    value {
      list {
        s: "loc:@bn4d_branch2c_1/AssignMovingAvg/AssignSubVariableOp"
      }
    }
  }
  attr {
    key: "container"
    value {
      s: ""
    }
  }
  attr {
    key: "dtype"
    value {
      type: DT_FLOAT
    }
  }
  attr {
    key: "shape"
    value {
      shape {
        dim {
          size: 1024
        }
      }
    }
  }
  attr {
    key: "shared_name"
    value {
      s: "bn4d_branch2c/moving_mean"
    }
  }
}
node {
  name: "bn4d_branch2c/moving_variance"
  op: "VarHandleOp"
  device: "/job:localhost/replica:0/task:0/device:GPU:0"
  attr {
    key: "_class"
    value {
      list {
        s: "loc:@bn4d_branch2c_1/AssignMovingAvg_1/AssignSubVariableOp"
      }
    }
  }
  attr {
    key: "container"
    value {
      s: ""
    }
  }
  attr {
    key: "dtype"
    value {
      type: DT_FLOAT
    }
  }
  attr {
    key: "shape"
    value {
      shape {
        dim {
          size: 1024
        }
      }
    }
  }
  attr {
    key: "shared_name"
    value {
      s: "bn4d_branch2c/moving_variance"
    }
  }
}
node {
  name: "bn4e_branch2a/moving_mean"
  op: "VarHandleOp"
  device: "/job:localhost/replica:0/task:0/device:GPU:0"
  attr {
    key: "_class"
    value {
      list {
        s: "loc:@bn4e_branch2a_1/AssignMovingAvg/AssignSubVariableOp"
      }
    }
  }
  attr {
    key: "container"
    value {
      s: ""
    }
  }
  attr {
    key: "dtype"
    value {
      type: DT_FLOAT
    }
  }
  attr {
    key: "shape"
    value {
      shape {
        dim {
          size: 256
        }
      }
    }
  }
  attr {
    key: "shared_name"
    value {
      s: "bn4e_branch2a/moving_mean"
    }
  }
}
node {
  name: "bn4e_branch2a/moving_variance"
  op: "VarHandleOp"
  device: "/job:localhost/replica:0/task:0/device:GPU:0"
  attr {
    key: "_class"
    value {
      list {
        s: "loc:@bn4e_branch2a_1/AssignMovingAvg_1/AssignSubVariableOp"
      }
    }
  }
  attr {
    key: "container"
    value {
      s: ""
    }
  }
  attr {
    key: "dtype"
    value {
      type: DT_FLOAT
    }
  }
  attr {
    key: "shape"
    value {
      shape {
        dim {
          size: 256
        }
      }
    }
  }
  attr {
    key: "shared_name"
    value {
      s: "bn4e_branch2a/moving_variance"
    }
  }
}
node {
  name: "bn4e_branch2b/moving_mean"
  op: "VarHandleOp"
  device: "/job:localhost/replica:0/task:0/device:GPU:0"
  attr {
    key: "_class"
    value {
      list {
        s: "loc:@bn4e_branch2b_1/AssignMovingAvg/AssignSubVariableOp"
      }
    }
  }
  attr {
    key: "container"
    value {
      s: ""
    }
  }
  attr {
    key: "dtype"
    value {
      type: DT_FLOAT
    }
  }
  attr {
    key: "shape"
    value {
      shape {
        dim {
          size: 256
        }
      }
    }
  }
  attr {
    key: "shared_name"
    value {
      s: "bn4e_branch2b/moving_mean"
    }
  }
}
node {
  name: "bn4e_branch2b/moving_variance"
  op: "VarHandleOp"
  device: "/job:localhost/replica:0/task:0/device:GPU:0"
  attr {
    key: "_class"
    value {
      list {
        s: "loc:@bn4e_branch2b_1/AssignMovingAvg_1/AssignSubVariableOp"
      }
    }
  }
  attr {
    key: "container"
    value {
      s: ""
    }
  }
  attr {
    key: "dtype"
    value {
      type: DT_FLOAT
    }
  }
  attr {
    key: "shape"
    value {
      shape {
        dim {
          size: 256
        }
      }
    }
  }
  attr {
    key: "shared_name"
    value {
      s: "bn4e_branch2b/moving_variance"
    }
  }
}
node {
  name: "bn4e_branch2c/moving_mean"
  op: "VarHandleOp"
  device: "/job:localhost/replica:0/task:0/device:GPU:0"
  attr {
    key: "_class"
    value {
      list {
        s: "loc:@bn4e_branch2c_1/AssignMovingAvg/AssignSubVariableOp"
      }
    }
  }
  attr {
    key: "container"
    value {
      s: ""
    }
  }
  attr {
    key: "dtype"
    value {
      type: DT_FLOAT
    }
  }
  attr {
    key: "shape"
    value {
      shape {
        dim {
          size: 1024
        }
      }
    }
  }
  attr {
    key: "shared_name"
    value {
      s: "bn4e_branch2c/moving_mean"
    }
  }
}
node {
  name: "bn4e_branch2c/moving_variance"
  op: "VarHandleOp"
  device: "/job:localhost/replica:0/task:0/device:GPU:0"
  attr {
    key: "_class"
    value {
      list {
        s: "loc:@bn4e_branch2c_1/AssignMovingAvg_1/AssignSubVariableOp"
      }
    }
  }
  attr {
    key: "container"
    value {
      s: ""
    }
  }
  attr {
    key: "dtype"
    value {
      type: DT_FLOAT
    }
  }
  attr {
    key: "shape"
    value {
      shape {
        dim {
          size: 1024
        }
      }
    }
  }
  attr {
    key: "shared_name"
    value {
      s: "bn4e_branch2c/moving_variance"
    }
  }
}
node {
  name: "bn4f_branch2a/moving_mean"
  op: "VarHandleOp"
  device: "/job:localhost/replica:0/task:0/device:GPU:0"
  attr {
    key: "_class"
    value {
      list {
        s: "loc:@bn4f_branch2a_1/AssignMovingAvg/AssignSubVariableOp"
      }
    }
  }
  attr {
    key: "container"
    value {
      s: ""
    }
  }
  attr {
    key: "dtype"
    value {
      type: DT_FLOAT
    }
  }
  attr {
    key: "shape"
    value {
      shape {
        dim {
          size: 256
        }
      }
    }
  }
  attr {
    key: "shared_name"
    value {
      s: "bn4f_branch2a/moving_mean"
    }
  }
}
node {
  name: "bn4f_branch2a/moving_variance"
  op: "VarHandleOp"
  device: "/job:localhost/replica:0/task:0/device:GPU:0"
  attr {
    key: "_class"
    value {
      list {
        s: "loc:@bn4f_branch2a_1/AssignMovingAvg_1/AssignSubVariableOp"
      }
    }
  }
  attr {
    key: "container"
    value {
      s: ""
    }
  }
  attr {
    key: "dtype"
    value {
      type: DT_FLOAT
    }
  }
  attr {
    key: "shape"
    value {
      shape {
        dim {
          size: 256
        }
      }
    }
  }
  attr {
    key: "shared_name"
    value {
      s: "bn4f_branch2a/moving_variance"
    }
  }
}
node {
  name: "bn4f_branch2b/moving_mean"
  op: "VarHandleOp"
  device: "/job:localhost/replica:0/task:0/device:GPU:0"
  attr {
    key: "_class"
    value {
      list {
        s: "loc:@bn4f_branch2b_1/AssignMovingAvg/AssignSubVariableOp"
      }
    }
  }
  attr {
    key: "container"
    value {
      s: ""
    }
  }
  attr {
    key: "dtype"
    value {
      type: DT_FLOAT
    }
  }
  attr {
    key: "shape"
    value {
      shape {
        dim {
          size: 256
        }
      }
    }
  }
  attr {
    key: "shared_name"
    value {
      s: "bn4f_branch2b/moving_mean"
    }
  }
}
node {
  name: "bn4f_branch2b/moving_variance"
  op: "VarHandleOp"
  device: "/job:localhost/replica:0/task:0/device:GPU:0"
  attr {
    key: "_class"
    value {
      list {
        s: "loc:@bn4f_branch2b_1/AssignMovingAvg_1/AssignSubVariableOp"
      }
    }
  }
  attr {
    key: "container"
    value {
      s: ""
    }
  }
  attr {
    key: "dtype"
    value {
      type: DT_FLOAT
    }
  }
  attr {
    key: "shape"
    value {
      shape {
        dim {
          size: 256
        }
      }
    }
  }
  attr {
    key: "shared_name"
    value {
      s: "bn4f_branch2b/moving_variance"
    }
  }
}
node {
  name: "bn4f_branch2c/moving_mean"
  op: "VarHandleOp"
  device: "/job:localhost/replica:0/task:0/device:GPU:0"
  attr {
    key: "_class"
    value {
      list {
        s: "loc:@bn4f_branch2c_1/AssignMovingAvg/AssignSubVariableOp"
      }
    }
  }
  attr {
    key: "container"
    value {
      s: ""
    }
  }
  attr {
    key: "dtype"
    value {
      type: DT_FLOAT
    }
  }
  attr {
    key: "shape"
    value {
      shape {
        dim {
          size: 1024
        }
      }
    }
  }
  attr {
    key: "shared_name"
    value {
      s: "bn4f_branch2c/moving_mean"
    }
  }
}
node {
  name: "bn4f_branch2c/moving_variance"
  op: "VarHandleOp"
  device: "/job:localhost/replica:0/task:0/device:GPU:0"
  attr {
    key: "_class"
    value {
      list {
        s: "loc:@bn4f_branch2c_1/AssignMovingAvg_1/AssignSubVariableOp"
      }
    }
  }
  attr {
    key: "container"
    value {
      s: ""
    }
  }
  attr {
    key: "dtype"
    value {
      type: DT_FLOAT
    }
  }
  attr {
    key: "shape"
    value {
      shape {
        dim {
          size: 1024
        }
      }
    }
  }
  attr {
    key: "shared_name"
    value {
      s: "bn4f_branch2c/moving_variance"
    }
  }
}
node {
  name: "bn5a_branch1/moving_mean"
  op: "VarHandleOp"
  device: "/job:localhost/replica:0/task:0/device:GPU:0"
  attr {
    key: "_class"
    value {
      list {
        s: "loc:@bn5a_branch1_1/AssignMovingAvg/AssignSubVariableOp"
      }
    }
  }
  attr {
    key: "container"
    value {
      s: ""
    }
  }
  attr {
    key: "dtype"
    value {
      type: DT_FLOAT
    }
  }
  attr {
    key: "shape"
    value {
      shape {
        dim {
          size: 2048
        }
      }
    }
  }
  attr {
    key: "shared_name"
    value {
      s: "bn5a_branch1/moving_mean"
    }
  }
}
node {
  name: "bn5a_branch1/moving_variance"
  op: "VarHandleOp"
  device: "/job:localhost/replica:0/task:0/device:GPU:0"
  attr {
    key: "_class"
    value {
      list {
        s: "loc:@bn5a_branch1_1/AssignMovingAvg_1/AssignSubVariableOp"
      }
    }
  }
  attr {
    key: "container"
    value {
      s: ""
    }
  }
  attr {
    key: "dtype"
    value {
      type: DT_FLOAT
    }
  }
  attr {
    key: "shape"
    value {
      shape {
        dim {
          size: 2048
        }
      }
    }
  }
  attr {
    key: "shared_name"
    value {
      s: "bn5a_branch1/moving_variance"
    }
  }
}
node {
  name: "bn5a_branch2a/moving_mean"
  op: "VarHandleOp"
  device: "/job:localhost/replica:0/task:0/device:GPU:0"
  attr {
    key: "_class"
    value {
      list {
        s: "loc:@bn5a_branch2a_1/AssignMovingAvg/AssignSubVariableOp"
      }
    }
  }
  attr {
    key: "container"
    value {
      s: ""
    }
  }
  attr {
    key: "dtype"
    value {
      type: DT_FLOAT
    }
  }
  attr {
    key: "shape"
    value {
      shape {
        dim {
          size: 512
        }
      }
    }
  }
  attr {
    key: "shared_name"
    value {
      s: "bn5a_branch2a/moving_mean"
    }
  }
}
node {
  name: "bn5a_branch2a/moving_variance"
  op: "VarHandleOp"
  device: "/job:localhost/replica:0/task:0/device:GPU:0"
  attr {
    key: "_class"
    value {
      list {
        s: "loc:@bn5a_branch2a_1/AssignMovingAvg_1/AssignSubVariableOp"
      }
    }
  }
  attr {
    key: "container"
    value {
      s: ""
    }
  }
  attr {
    key: "dtype"
    value {
      type: DT_FLOAT
    }
  }
  attr {
    key: "shape"
    value {
      shape {
        dim {
          size: 512
        }
      }
    }
  }
  attr {
    key: "shared_name"
    value {
      s: "bn5a_branch2a/moving_variance"
    }
  }
}
node {
  name: "bn5a_branch2b/moving_mean"
  op: "VarHandleOp"
  device: "/job:localhost/replica:0/task:0/device:GPU:0"
  attr {
    key: "_class"
    value {
      list {
        s: "loc:@bn5a_branch2b_1/AssignMovingAvg/AssignSubVariableOp"
      }
    }
  }
  attr {
    key: "container"
    value {
      s: ""
    }
  }
  attr {
    key: "dtype"
    value {
      type: DT_FLOAT
    }
  }
  attr {
    key: "shape"
    value {
      shape {
        dim {
          size: 512
        }
      }
    }
  }
  attr {
    key: "shared_name"
    value {
      s: "bn5a_branch2b/moving_mean"
    }
  }
}
node {
  name: "bn5a_branch2b/moving_variance"
  op: "VarHandleOp"
  device: "/job:localhost/replica:0/task:0/device:GPU:0"
  attr {
    key: "_class"
    value {
      list {
        s: "loc:@bn5a_branch2b_1/AssignMovingAvg_1/AssignSubVariableOp"
      }
    }
  }
  attr {
    key: "container"
    value {
      s: ""
    }
  }
  attr {
    key: "dtype"
    value {
      type: DT_FLOAT
    }
  }
  attr {
    key: "shape"
    value {
      shape {
        dim {
          size: 512
        }
      }
    }
  }
  attr {
    key: "shared_name"
    value {
      s: "bn5a_branch2b/moving_variance"
    }
  }
}
node {
  name: "bn5a_branch2c/moving_mean"
  op: "VarHandleOp"
  device: "/job:localhost/replica:0/task:0/device:GPU:0"
  attr {
    key: "_class"
    value {
      list {
        s: "loc:@bn5a_branch2c_1/AssignMovingAvg/AssignSubVariableOp"
      }
    }
  }
  attr {
    key: "container"
    value {
      s: ""
    }
  }
  attr {
    key: "dtype"
    value {
      type: DT_FLOAT
    }
  }
  attr {
    key: "shape"
    value {
      shape {
        dim {
          size: 2048
        }
      }
    }
  }
  attr {
    key: "shared_name"
    value {
      s: "bn5a_branch2c/moving_mean"
    }
  }
}
node {
  name: "bn5a_branch2c/moving_variance"
  op: "VarHandleOp"
  device: "/job:localhost/replica:0/task:0/device:GPU:0"
  attr {
    key: "_class"
    value {
      list {
        s: "loc:@bn5a_branch2c_1/AssignMovingAvg_1/AssignSubVariableOp"
      }
    }
  }
  attr {
    key: "container"
    value {
      s: ""
    }
  }
  attr {
    key: "dtype"
    value {
      type: DT_FLOAT
    }
  }
  attr {
    key: "shape"
    value {
      shape {
        dim {
          size: 2048
        }
      }
    }
  }
  attr {
    key: "shared_name"
    value {
      s: "bn5a_branch2c/moving_variance"
    }
  }
}
node {
  name: "bn5b_branch2a/moving_mean"
  op: "VarHandleOp"
  device: "/job:localhost/replica:0/task:0/device:GPU:0"
  attr {
    key: "_class"
    value {
      list {
        s: "loc:@bn5b_branch2a_1/AssignMovingAvg/AssignSubVariableOp"
      }
    }
  }
  attr {
    key: "container"
    value {
      s: ""
    }
  }
  attr {
    key: "dtype"
    value {
      type: DT_FLOAT
    }
  }
  attr {
    key: "shape"
    value {
      shape {
        dim {
          size: 512
        }
      }
    }
  }
  attr {
    key: "shared_name"
    value {
      s: "bn5b_branch2a/moving_mean"
    }
  }
}
node {
  name: "bn5b_branch2a/moving_variance"
  op: "VarHandleOp"
  device: "/job:localhost/replica:0/task:0/device:GPU:0"
  attr {
    key: "_class"
    value {
      list {
        s: "loc:@bn5b_branch2a_1/AssignMovingAvg_1/AssignSubVariableOp"
      }
    }
  }
  attr {
    key: "container"
    value {
      s: ""
    }
  }
  attr {
    key: "dtype"
    value {
      type: DT_FLOAT
    }
  }
  attr {
    key: "shape"
    value {
      shape {
        dim {
          size: 512
        }
      }
    }
  }
  attr {
    key: "shared_name"
    value {
      s: "bn5b_branch2a/moving_variance"
    }
  }
}
node {
  name: "bn5b_branch2b/moving_mean"
  op: "VarHandleOp"
  device: "/job:localhost/replica:0/task:0/device:GPU:0"
  attr {
    key: "_class"
    value {
      list {
        s: "loc:@bn5b_branch2b_1/AssignMovingAvg/AssignSubVariableOp"
      }
    }
  }
  attr {
    key: "container"
    value {
      s: ""
    }
  }
  attr {
    key: "dtype"
    value {
      type: DT_FLOAT
    }
  }
  attr {
    key: "shape"
    value {
      shape {
        dim {
          size: 512
        }
      }
    }
  }
  attr {
    key: "shared_name"
    value {
      s: "bn5b_branch2b/moving_mean"
    }
  }
}
node {
  name: "bn5b_branch2b/moving_variance"
  op: "VarHandleOp"
  device: "/job:localhost/replica:0/task:0/device:GPU:0"
  attr {
    key: "_class"
    value {
      list {
        s: "loc:@bn5b_branch2b_1/AssignMovingAvg_1/AssignSubVariableOp"
      }
    }
  }
  attr {
    key: "container"
    value {
      s: ""
    }
  }
  attr {
    key: "dtype"
    value {
      type: DT_FLOAT
    }
  }
  attr {
    key: "shape"
    value {
      shape {
        dim {
          size: 512
        }
      }
    }
  }
  attr {
    key: "shared_name"
    value {
      s: "bn5b_branch2b/moving_variance"
    }
  }
}
node {
  name: "bn5b_branch2c/moving_mean"
  op: "VarHandleOp"
  device: "/job:localhost/replica:0/task:0/device:GPU:0"
  attr {
    key: "_class"
    value {
      list {
        s: "loc:@bn5b_branch2c_1/AssignMovingAvg/AssignSubVariableOp"
      }
    }
  }
  attr {
    key: "container"
    value {
      s: ""
    }
  }
  attr {
    key: "dtype"
    value {
      type: DT_FLOAT
    }
  }
  attr {
    key: "shape"
    value {
      shape {
        dim {
          size: 2048
        }
      }
    }
  }
  attr {
    key: "shared_name"
    value {
      s: "bn5b_branch2c/moving_mean"
    }
  }
}
node {
  name: "bn5b_branch2c/moving_variance"
  op: "VarHandleOp"
  device: "/job:localhost/replica:0/task:0/device:GPU:0"
  attr {
    key: "_class"
    value {
      list {
        s: "loc:@bn5b_branch2c_1/AssignMovingAvg_1/AssignSubVariableOp"
      }
    }
  }
  attr {
    key: "container"
    value {
      s: ""
    }
  }
  attr {
    key: "dtype"
    value {
      type: DT_FLOAT
    }
  }
  attr {
    key: "shape"
    value {
      shape {
        dim {
          size: 2048
        }
      }
    }
  }
  attr {
    key: "shared_name"
    value {
      s: "bn5b_branch2c/moving_variance"
    }
  }
}
node {
  name: "bn5c_branch2a/moving_mean"
  op: "VarHandleOp"
  device: "/job:localhost/replica:0/task:0/device:GPU:0"
  attr {
    key: "_class"
    value {
      list {
        s: "loc:@bn5c_branch2a_1/AssignMovingAvg/AssignSubVariableOp"
      }
    }
  }
  attr {
    key: "container"
    value {
      s: ""
    }
  }
  attr {
    key: "dtype"
    value {
      type: DT_FLOAT
    }
  }
  attr {
    key: "shape"
    value {
      shape {
        dim {
          size: 512
        }
      }
    }
  }
  attr {
    key: "shared_name"
    value {
      s: "bn5c_branch2a/moving_mean"
    }
  }
}
node {
  name: "bn5c_branch2a/moving_variance"
  op: "VarHandleOp"
  device: "/job:localhost/replica:0/task:0/device:GPU:0"
  attr {
    key: "_class"
    value {
      list {
        s: "loc:@bn5c_branch2a_1/AssignMovingAvg_1/AssignSubVariableOp"
      }
    }
  }
  attr {
    key: "container"
    value {
      s: ""
    }
  }
  attr {
    key: "dtype"
    value {
      type: DT_FLOAT
    }
  }
  attr {
    key: "shape"
    value {
      shape {
        dim {
          size: 512
        }
      }
    }
  }
  attr {
    key: "shared_name"
    value {
      s: "bn5c_branch2a/moving_variance"
    }
  }
}
node {
  name: "bn5c_branch2b/moving_mean"
  op: "VarHandleOp"
  device: "/job:localhost/replica:0/task:0/device:GPU:0"
  attr {
    key: "_class"
    value {
      list {
        s: "loc:@bn5c_branch2b_1/AssignMovingAvg/AssignSubVariableOp"
      }
    }
  }
  attr {
    key: "container"
    value {
      s: ""
    }
  }
  attr {
    key: "dtype"
    value {
      type: DT_FLOAT
    }
  }
  attr {
    key: "shape"
    value {
      shape {
        dim {
          size: 512
        }
      }
    }
  }
  attr {
    key: "shared_name"
    value {
      s: "bn5c_branch2b/moving_mean"
    }
  }
}
node {
  name: "bn5c_branch2b/moving_variance"
  op: "VarHandleOp"
  device: "/job:localhost/replica:0/task:0/device:GPU:0"
  attr {
    key: "_class"
    value {
      list {
        s: "loc:@bn5c_branch2b_1/AssignMovingAvg_1/AssignSubVariableOp"
      }
    }
  }
  attr {
    key: "container"
    value {
      s: ""
    }
  }
  attr {
    key: "dtype"
    value {
      type: DT_FLOAT
    }
  }
  attr {
    key: "shape"
    value {
      shape {
        dim {
          size: 512
        }
      }
    }
  }
  attr {
    key: "shared_name"
    value {
      s: "bn5c_branch2b/moving_variance"
    }
  }
}
node {
  name: "bn5c_branch2c/moving_mean"
  op: "VarHandleOp"
  device: "/job:localhost/replica:0/task:0/device:GPU:0"
  attr {
    key: "_class"
    value {
      list {
        s: "loc:@bn5c_branch2c_1/AssignMovingAvg/AssignSubVariableOp"
      }
    }
  }
  attr {
    key: "container"
    value {
      s: ""
    }
  }
  attr {
    key: "dtype"
    value {
      type: DT_FLOAT
    }
  }
  attr {
    key: "shape"
    value {
      shape {
        dim {
          size: 2048
        }
      }
    }
  }
  attr {
    key: "shared_name"
    value {
      s: "bn5c_branch2c/moving_mean"
    }
  }
}
node {
  name: "bn5c_branch2c/moving_variance"
  op: "VarHandleOp"
  device: "/job:localhost/replica:0/task:0/device:GPU:0"
  attr {
    key: "_class"
    value {
      list {
        s: "loc:@bn5c_branch2c_1/AssignMovingAvg_1/AssignSubVariableOp"
      }
    }
  }
  attr {
    key: "container"
    value {
      s: ""
    }
  }
  attr {
    key: "dtype"
    value {
      type: DT_FLOAT
    }
  }
  attr {
    key: "shape"
    value {
      shape {
        dim {
          size: 2048
        }
      }
    }
  }
  attr {
    key: "shared_name"
    value {
      s: "bn5c_branch2c/moving_variance"
    }
  }
}
node {
  name: "bn_conv1/moving_mean"
  op: "VarHandleOp"
  device: "/job:localhost/replica:0/task:0/device:GPU:0"
  attr {
    key: "_class"
    value {
      list {
        s: "loc:@bn_conv1_1/AssignMovingAvg/AssignSubVariableOp"
      }
    }
  }
  attr {
    key: "container"
    value {
      s: ""
    }
  }
  attr {
    key: "dtype"
    value {
      type: DT_FLOAT
    }
  }
  attr {
    key: "shape"
    value {
      shape {
        dim {
          size: 64
        }
      }
    }
  }
  attr {
    key: "shared_name"
    value {
      s: "bn_conv1/moving_mean"
    }
  }
}
node {
  name: "bn_conv1_1/AssignMovingAvg_1/sub"
  op: "Const"
  device: "/job:localhost/replica:0/task:0/device:GPU:0"
  attr {
    key: "dtype"
    value {
      type: DT_FLOAT
    }
  }
  attr {
    key: "value"
    value {
      tensor {
        dtype: DT_FLOAT
        tensor_shape {
        }
        tensor_content: "\320\314\314="
      }
    }
  }
}
node {
  name: "bn_conv1/moving_variance"
  op: "VarHandleOp"
  device: "/job:localhost/replica:0/task:0/device:GPU:0"
  attr {
    key: "_class"
    value {
      list {
        s: "loc:@bn_conv1_1/AssignMovingAvg_1/AssignSubVariableOp"
      }
    }
  }
  attr {
    key: "container"
    value {
      s: ""
    }
  }
  attr {
    key: "dtype"
    value {
      type: DT_FLOAT
    }
  }
  attr {
    key: "shape"
    value {
      shape {
        dim {
          size: 64
        }
      }
    }
  }
  attr {
    key: "shared_name"
    value {
      s: "bn_conv1/moving_variance"
    }
  }
}
node {
  name: "training/SGD/iter"
  op: "VarHandleOp"
  device: "/job:localhost/replica:0/task:0/device:GPU:0"
  attr {
    key: "container"
    value {
      s: ""
    }
  }
  attr {
    key: "dtype"
    value {
      type: DT_INT64
    }
  }
  attr {
    key: "shape"
    value {
      shape {
      }
    }
  }
  attr {
    key: "shared_name"
    value {
      s: "training/SGD/iter"
    }
  }
}
node {
  name: "training/SGD/bn2a_branch1/beta/momentum"
  op: "VarHandleOp"
  device: "/job:localhost/replica:0/task:0/device:GPU:0"
  attr {
    key: "container"
    value {
      s: ""
    }
  }
  attr {
    key: "dtype"
    value {
      type: DT_FLOAT
    }
  }
  attr {
    key: "shape"
    value {
      shape {
        dim {
          size: 256
        }
      }
    }
  }
  attr {
    key: "shared_name"
    value {
      s: "training/SGD/bn2a_branch1/beta/momentum"
    }
  }
}
node {
  name: "training/SGD/bn2a_branch1/gamma/momentum"
  op: "VarHandleOp"
  device: "/job:localhost/replica:0/task:0/device:GPU:0"
  attr {
    key: "container"
    value {
      s: ""
    }
  }
  attr {
    key: "dtype"
    value {
      type: DT_FLOAT
    }
  }
  attr {
    key: "shape"
    value {
      shape {
        dim {
          size: 256
        }
      }
    }
  }
  attr {
    key: "shared_name"
    value {
      s: "training/SGD/bn2a_branch1/gamma/momentum"
    }
  }
}
node {
  name: "training/SGD/bn2a_branch2a/beta/momentum"
  op: "VarHandleOp"
  device: "/job:localhost/replica:0/task:0/device:GPU:0"
  attr {
    key: "container"
    value {
      s: ""
    }
  }
  attr {
    key: "dtype"
    value {
      type: DT_FLOAT
    }
  }
  attr {
    key: "shape"
    value {
      shape {
        dim {
          size: 64
        }
      }
    }
  }
  attr {
    key: "shared_name"
    value {
      s: "training/SGD/bn2a_branch2a/beta/momentum"
    }
  }
}
node {
  name: "training/SGD/bn2a_branch2a/gamma/momentum"
  op: "VarHandleOp"
  device: "/job:localhost/replica:0/task:0/device:GPU:0"
  attr {
    key: "container"
    value {
      s: ""
    }
  }
  attr {
    key: "dtype"
    value {
      type: DT_FLOAT
    }
  }
  attr {
    key: "shape"
    value {
      shape {
        dim {
          size: 64
        }
      }
    }
  }
  attr {
    key: "shared_name"
    value {
      s: "training/SGD/bn2a_branch2a/gamma/momentum"
    }
  }
}
node {
  name: "training/SGD/bn2a_branch2b/beta/momentum"
  op: "VarHandleOp"
  device: "/job:localhost/replica:0/task:0/device:GPU:0"
  attr {
    key: "container"
    value {
      s: ""
    }
  }
  attr {
    key: "dtype"
    value {
      type: DT_FLOAT
    }
  }
  attr {
    key: "shape"
    value {
      shape {
        dim {
          size: 64
        }
      }
    }
  }
  attr {
    key: "shared_name"
    value {
      s: "training/SGD/bn2a_branch2b/beta/momentum"
    }
  }
}
node {
  name: "training/SGD/bn2a_branch2b/gamma/momentum"
  op: "VarHandleOp"
  device: "/job:localhost/replica:0/task:0/device:GPU:0"
  attr {
    key: "container"
    value {
      s: ""
    }
  }
  attr {
    key: "dtype"
    value {
      type: DT_FLOAT
    }
  }
  attr {
    key: "shape"
    value {
      shape {
        dim {
          size: 64
        }
      }
    }
  }
  attr {
    key: "shared_name"
    value {
      s: "training/SGD/bn2a_branch2b/gamma/momentum"
    }
  }
}
node {
  name: "training/SGD/bn2a_branch2c/beta/momentum"
  op: "VarHandleOp"
  device: "/job:localhost/replica:0/task:0/device:GPU:0"
  attr {
    key: "container"
    value {
      s: ""
    }
  }
  attr {
    key: "dtype"
    value {
      type: DT_FLOAT
    }
  }
  attr {
    key: "shape"
    value {
      shape {
        dim {
          size: 256
        }
      }
    }
  }
  attr {
    key: "shared_name"
    value {
      s: "training/SGD/bn2a_branch2c/beta/momentum"
    }
  }
}
node {
  name: "training/SGD/bn2a_branch2c/gamma/momentum"
  op: "VarHandleOp"
  device: "/job:localhost/replica:0/task:0/device:GPU:0"
  attr {
    key: "container"
    value {
      s: ""
    }
  }
  attr {
    key: "dtype"
    value {
      type: DT_FLOAT
    }
  }
  attr {
    key: "shape"
    value {
      shape {
        dim {
          size: 256
        }
      }
    }
  }
  attr {
    key: "shared_name"
    value {
      s: "training/SGD/bn2a_branch2c/gamma/momentum"
    }
  }
}
node {
  name: "training/SGD/bn2b_branch2a/beta/momentum"
  op: "VarHandleOp"
  device: "/job:localhost/replica:0/task:0/device:GPU:0"
  attr {
    key: "container"
    value {
      s: ""
    }
  }
  attr {
    key: "dtype"
    value {
      type: DT_FLOAT
    }
  }
  attr {
    key: "shape"
    value {
      shape {
        dim {
          size: 64
        }
      }
    }
  }
  attr {
    key: "shared_name"
    value {
      s: "training/SGD/bn2b_branch2a/beta/momentum"
    }
  }
}
node {
  name: "training/SGD/bn2b_branch2a/gamma/momentum"
  op: "VarHandleOp"
  device: "/job:localhost/replica:0/task:0/device:GPU:0"
  attr {
    key: "container"
    value {
      s: ""
    }
  }
  attr {
    key: "dtype"
    value {
      type: DT_FLOAT
    }
  }
  attr {
    key: "shape"
    value {
      shape {
        dim {
          size: 64
        }
      }
    }
  }
  attr {
    key: "shared_name"
    value {
      s: "training/SGD/bn2b_branch2a/gamma/momentum"
    }
  }
}
node {
  name: "training/SGD/bn2b_branch2b/beta/momentum"
  op: "VarHandleOp"
  device: "/job:localhost/replica:0/task:0/device:GPU:0"
  attr {
    key: "container"
    value {
      s: ""
    }
  }
  attr {
    key: "dtype"
    value {
      type: DT_FLOAT
    }
  }
  attr {
    key: "shape"
    value {
      shape {
        dim {
          size: 64
        }
      }
    }
  }
  attr {
    key: "shared_name"
    value {
      s: "training/SGD/bn2b_branch2b/beta/momentum"
    }
  }
}
node {
  name: "training/SGD/bn2b_branch2b/gamma/momentum"
  op: "VarHandleOp"
  device: "/job:localhost/replica:0/task:0/device:GPU:0"
  attr {
    key: "container"
    value {
      s: ""
    }
  }
  attr {
    key: "dtype"
    value {
      type: DT_FLOAT
    }
  }
  attr {
    key: "shape"
    value {
      shape {
        dim {
          size: 64
        }
      }
    }
  }
  attr {
    key: "shared_name"
    value {
      s: "training/SGD/bn2b_branch2b/gamma/momentum"
    }
  }
}
node {
  name: "training/SGD/bn2b_branch2c/beta/momentum"
  op: "VarHandleOp"
  device: "/job:localhost/replica:0/task:0/device:GPU:0"
  attr {
    key: "container"
    value {
      s: ""
    }
  }
  attr {
    key: "dtype"
    value {
      type: DT_FLOAT
    }
  }
  attr {
    key: "shape"
    value {
      shape {
        dim {
          size: 256
        }
      }
    }
  }
  attr {
    key: "shared_name"
    value {
      s: "training/SGD/bn2b_branch2c/beta/momentum"
    }
  }
}
node {
  name: "training/SGD/bn2b_branch2c/gamma/momentum"
  op: "VarHandleOp"
  device: "/job:localhost/replica:0/task:0/device:GPU:0"
  attr {
    key: "container"
    value {
      s: ""
    }
  }
  attr {
    key: "dtype"
    value {
      type: DT_FLOAT
    }
  }
  attr {
    key: "shape"
    value {
      shape {
        dim {
          size: 256
        }
      }
    }
  }
  attr {
    key: "shared_name"
    value {
      s: "training/SGD/bn2b_branch2c/gamma/momentum"
    }
  }
}
node {
  name: "training/SGD/bn2c_branch2a/beta/momentum"
  op: "VarHandleOp"
  device: "/job:localhost/replica:0/task:0/device:GPU:0"
  attr {
    key: "container"
    value {
      s: ""
    }
  }
  attr {
    key: "dtype"
    value {
      type: DT_FLOAT
    }
  }
  attr {
    key: "shape"
    value {
      shape {
        dim {
          size: 64
        }
      }
    }
  }
  attr {
    key: "shared_name"
    value {
      s: "training/SGD/bn2c_branch2a/beta/momentum"
    }
  }
}
node {
  name: "training/SGD/bn2c_branch2a/gamma/momentum"
  op: "VarHandleOp"
  device: "/job:localhost/replica:0/task:0/device:GPU:0"
  attr {
    key: "container"
    value {
      s: ""
    }
  }
  attr {
    key: "dtype"
    value {
      type: DT_FLOAT
    }
  }
  attr {
    key: "shape"
    value {
      shape {
        dim {
          size: 64
        }
      }
    }
  }
  attr {
    key: "shared_name"
    value {
      s: "training/SGD/bn2c_branch2a/gamma/momentum"
    }
  }
}
node {
  name: "training/SGD/bn2c_branch2b/beta/momentum"
  op: "VarHandleOp"
  device: "/job:localhost/replica:0/task:0/device:GPU:0"
  attr {
    key: "container"
    value {
      s: ""
    }
  }
  attr {
    key: "dtype"
    value {
      type: DT_FLOAT
    }
  }
  attr {
    key: "shape"
    value {
      shape {
        dim {
          size: 64
        }
      }
    }
  }
  attr {
    key: "shared_name"
    value {
      s: "training/SGD/bn2c_branch2b/beta/momentum"
    }
  }
}
node {
  name: "training/SGD/bn2c_branch2b/gamma/momentum"
  op: "VarHandleOp"
  device: "/job:localhost/replica:0/task:0/device:GPU:0"
  attr {
    key: "container"
    value {
      s: ""
    }
  }
  attr {
    key: "dtype"
    value {
      type: DT_FLOAT
    }
  }
  attr {
    key: "shape"
    value {
      shape {
        dim {
          size: 64
        }
      }
    }
  }
  attr {
    key: "shared_name"
    value {
      s: "training/SGD/bn2c_branch2b/gamma/momentum"
    }
  }
}
node {
  name: "training/SGD/bn2c_branch2c/beta/momentum"
  op: "VarHandleOp"
  device: "/job:localhost/replica:0/task:0/device:GPU:0"
  attr {
    key: "container"
    value {
      s: ""
    }
  }
  attr {
    key: "dtype"
    value {
      type: DT_FLOAT
    }
  }
  attr {
    key: "shape"
    value {
      shape {
        dim {
          size: 256
        }
      }
    }
  }
  attr {
    key: "shared_name"
    value {
      s: "training/SGD/bn2c_branch2c/beta/momentum"
    }
  }
}
node {
  name: "training/SGD/bn2c_branch2c/gamma/momentum"
  op: "VarHandleOp"
  device: "/job:localhost/replica:0/task:0/device:GPU:0"
  attr {
    key: "container"
    value {
      s: ""
    }
  }
  attr {
    key: "dtype"
    value {
      type: DT_FLOAT
    }
  }
  attr {
    key: "shape"
    value {
      shape {
        dim {
          size: 256
        }
      }
    }
  }
  attr {
    key: "shared_name"
    value {
      s: "training/SGD/bn2c_branch2c/gamma/momentum"
    }
  }
}
node {
  name: "training/SGD/bn3a_branch1/beta/momentum"
  op: "VarHandleOp"
  device: "/job:localhost/replica:0/task:0/device:GPU:0"
  attr {
    key: "container"
    value {
      s: ""
    }
  }
  attr {
    key: "dtype"
    value {
      type: DT_FLOAT
    }
  }
  attr {
    key: "shape"
    value {
      shape {
        dim {
          size: 512
        }
      }
    }
  }
  attr {
    key: "shared_name"
    value {
      s: "training/SGD/bn3a_branch1/beta/momentum"
    }
  }
}
node {
  name: "training/SGD/bn3a_branch1/gamma/momentum"
  op: "VarHandleOp"
  device: "/job:localhost/replica:0/task:0/device:GPU:0"
  attr {
    key: "container"
    value {
      s: ""
    }
  }
  attr {
    key: "dtype"
    value {
      type: DT_FLOAT
    }
  }
  attr {
    key: "shape"
    value {
      shape {
        dim {
          size: 512
        }
      }
    }
  }
  attr {
    key: "shared_name"
    value {
      s: "training/SGD/bn3a_branch1/gamma/momentum"
    }
  }
}
node {
  name: "training/SGD/bn3a_branch2a/beta/momentum"
  op: "VarHandleOp"
  device: "/job:localhost/replica:0/task:0/device:GPU:0"
  attr {
    key: "container"
    value {
      s: ""
    }
  }
  attr {
    key: "dtype"
    value {
      type: DT_FLOAT
    }
  }
  attr {
    key: "shape"
    value {
      shape {
        dim {
          size: 128
        }
      }
    }
  }
  attr {
    key: "shared_name"
    value {
      s: "training/SGD/bn3a_branch2a/beta/momentum"
    }
  }
}
node {
  name: "training/SGD/bn3a_branch2a/gamma/momentum"
  op: "VarHandleOp"
  device: "/job:localhost/replica:0/task:0/device:GPU:0"
  attr {
    key: "container"
    value {
      s: ""
    }
  }
  attr {
    key: "dtype"
    value {
      type: DT_FLOAT
    }
  }
  attr {
    key: "shape"
    value {
      shape {
        dim {
          size: 128
        }
      }
    }
  }
  attr {
    key: "shared_name"
    value {
      s: "training/SGD/bn3a_branch2a/gamma/momentum"
    }
  }
}
node {
  name: "training/SGD/bn3a_branch2b/beta/momentum"
  op: "VarHandleOp"
  device: "/job:localhost/replica:0/task:0/device:GPU:0"
  attr {
    key: "container"
    value {
      s: ""
    }
  }
  attr {
    key: "dtype"
    value {
      type: DT_FLOAT
    }
  }
  attr {
    key: "shape"
    value {
      shape {
        dim {
          size: 128
        }
      }
    }
  }
  attr {
    key: "shared_name"
    value {
      s: "training/SGD/bn3a_branch2b/beta/momentum"
    }
  }
}
node {
  name: "training/SGD/bn3a_branch2b/gamma/momentum"
  op: "VarHandleOp"
  device: "/job:localhost/replica:0/task:0/device:GPU:0"
  attr {
    key: "container"
    value {
      s: ""
    }
  }
  attr {
    key: "dtype"
    value {
      type: DT_FLOAT
    }
  }
  attr {
    key: "shape"
    value {
      shape {
        dim {
          size: 128
        }
      }
    }
  }
  attr {
    key: "shared_name"
    value {
      s: "training/SGD/bn3a_branch2b/gamma/momentum"
    }
  }
}
node {
  name: "training/SGD/bn3a_branch2c/beta/momentum"
  op: "VarHandleOp"
  device: "/job:localhost/replica:0/task:0/device:GPU:0"
  attr {
    key: "container"
    value {
      s: ""
    }
  }
  attr {
    key: "dtype"
    value {
      type: DT_FLOAT
    }
  }
  attr {
    key: "shape"
    value {
      shape {
        dim {
          size: 512
        }
      }
    }
  }
  attr {
    key: "shared_name"
    value {
      s: "training/SGD/bn3a_branch2c/beta/momentum"
    }
  }
}
node {
  name: "training/SGD/bn3a_branch2c/gamma/momentum"
  op: "VarHandleOp"
  device: "/job:localhost/replica:0/task:0/device:GPU:0"
  attr {
    key: "container"
    value {
      s: ""
    }
  }
  attr {
    key: "dtype"
    value {
      type: DT_FLOAT
    }
  }
  attr {
    key: "shape"
    value {
      shape {
        dim {
          size: 512
        }
      }
    }
  }
  attr {
    key: "shared_name"
    value {
      s: "training/SGD/bn3a_branch2c/gamma/momentum"
    }
  }
}
node {
  name: "training/SGD/bn3b_branch2a/beta/momentum"
  op: "VarHandleOp"
  device: "/job:localhost/replica:0/task:0/device:GPU:0"
  attr {
    key: "container"
    value {
      s: ""
    }
  }
  attr {
    key: "dtype"
    value {
      type: DT_FLOAT
    }
  }
  attr {
    key: "shape"
    value {
      shape {
        dim {
          size: 128
        }
      }
    }
  }
  attr {
    key: "shared_name"
    value {
      s: "training/SGD/bn3b_branch2a/beta/momentum"
    }
  }
}
node {
  name: "training/SGD/bn3b_branch2a/gamma/momentum"
  op: "VarHandleOp"
  device: "/job:localhost/replica:0/task:0/device:GPU:0"
  attr {
    key: "container"
    value {
      s: ""
    }
  }
  attr {
    key: "dtype"
    value {
      type: DT_FLOAT
    }
  }
  attr {
    key: "shape"
    value {
      shape {
        dim {
          size: 128
        }
      }
    }
  }
  attr {
    key: "shared_name"
    value {
      s: "training/SGD/bn3b_branch2a/gamma/momentum"
    }
  }
}
node {
  name: "training/SGD/bn3b_branch2b/beta/momentum"
  op: "VarHandleOp"
  device: "/job:localhost/replica:0/task:0/device:GPU:0"
  attr {
    key: "container"
    value {
      s: ""
    }
  }
  attr {
    key: "dtype"
    value {
      type: DT_FLOAT
    }
  }
  attr {
    key: "shape"
    value {
      shape {
        dim {
          size: 128
        }
      }
    }
  }
  attr {
    key: "shared_name"
    value {
      s: "training/SGD/bn3b_branch2b/beta/momentum"
    }
  }
}
node {
  name: "training/SGD/bn3b_branch2b/gamma/momentum"
  op: "VarHandleOp"
  device: "/job:localhost/replica:0/task:0/device:GPU:0"
  attr {
    key: "container"
    value {
      s: ""
    }
  }
  attr {
    key: "dtype"
    value {
      type: DT_FLOAT
    }
  }
  attr {
    key: "shape"
    value {
      shape {
        dim {
          size: 128
        }
      }
    }
  }
  attr {
    key: "shared_name"
    value {
      s: "training/SGD/bn3b_branch2b/gamma/momentum"
    }
  }
}
node {
  name: "training/SGD/bn3b_branch2c/beta/momentum"
  op: "VarHandleOp"
  device: "/job:localhost/replica:0/task:0/device:GPU:0"
  attr {
    key: "container"
    value {
      s: ""
    }
  }
  attr {
    key: "dtype"
    value {
      type: DT_FLOAT
    }
  }
  attr {
    key: "shape"
    value {
      shape {
        dim {
          size: 512
        }
      }
    }
  }
  attr {
    key: "shared_name"
    value {
      s: "training/SGD/bn3b_branch2c/beta/momentum"
    }
  }
}
node {
  name: "training/SGD/bn3b_branch2c/gamma/momentum"
  op: "VarHandleOp"
  device: "/job:localhost/replica:0/task:0/device:GPU:0"
  attr {
    key: "container"
    value {
      s: ""
    }
  }
  attr {
    key: "dtype"
    value {
      type: DT_FLOAT
    }
  }
  attr {
    key: "shape"
    value {
      shape {
        dim {
          size: 512
        }
      }
    }
  }
  attr {
    key: "shared_name"
    value {
      s: "training/SGD/bn3b_branch2c/gamma/momentum"
    }
  }
}
node {
  name: "training/SGD/bn3c_branch2a/beta/momentum"
  op: "VarHandleOp"
  device: "/job:localhost/replica:0/task:0/device:GPU:0"
  attr {
    key: "container"
    value {
      s: ""
    }
  }
  attr {
    key: "dtype"
    value {
      type: DT_FLOAT
    }
  }
  attr {
    key: "shape"
    value {
      shape {
        dim {
          size: 128
        }
      }
    }
  }
  attr {
    key: "shared_name"
    value {
      s: "training/SGD/bn3c_branch2a/beta/momentum"
    }
  }
}
node {
  name: "training/SGD/bn3c_branch2a/gamma/momentum"
  op: "VarHandleOp"
  device: "/job:localhost/replica:0/task:0/device:GPU:0"
  attr {
    key: "container"
    value {
      s: ""
    }
  }
  attr {
    key: "dtype"
    value {
      type: DT_FLOAT
    }
  }
  attr {
    key: "shape"
    value {
      shape {
        dim {
          size: 128
        }
      }
    }
  }
  attr {
    key: "shared_name"
    value {
      s: "training/SGD/bn3c_branch2a/gamma/momentum"
    }
  }
}
node {
  name: "training/SGD/bn3c_branch2b/beta/momentum"
  op: "VarHandleOp"
  device: "/job:localhost/replica:0/task:0/device:GPU:0"
  attr {
    key: "container"
    value {
      s: ""
    }
  }
  attr {
    key: "dtype"
    value {
      type: DT_FLOAT
    }
  }
  attr {
    key: "shape"
    value {
      shape {
        dim {
          size: 128
        }
      }
    }
  }
  attr {
    key: "shared_name"
    value {
      s: "training/SGD/bn3c_branch2b/beta/momentum"
    }
  }
}
node {
  name: "training/SGD/bn3c_branch2b/gamma/momentum"
  op: "VarHandleOp"
  device: "/job:localhost/replica:0/task:0/device:GPU:0"
  attr {
    key: "container"
    value {
      s: ""
    }
  }
  attr {
    key: "dtype"
    value {
      type: DT_FLOAT
    }
  }
  attr {
    key: "shape"
    value {
      shape {
        dim {
          size: 128
        }
      }
    }
  }
  attr {
    key: "shared_name"
    value {
      s: "training/SGD/bn3c_branch2b/gamma/momentum"
    }
  }
}
node {
  name: "training/SGD/bn3c_branch2c/beta/momentum"
  op: "VarHandleOp"
  device: "/job:localhost/replica:0/task:0/device:GPU:0"
  attr {
    key: "container"
    value {
      s: ""
    }
  }
  attr {
    key: "dtype"
    value {
      type: DT_FLOAT
    }
  }
  attr {
    key: "shape"
    value {
      shape {
        dim {
          size: 512
        }
      }
    }
  }
  attr {
    key: "shared_name"
    value {
      s: "training/SGD/bn3c_branch2c/beta/momentum"
    }
  }
}
node {
  name: "training/SGD/bn3c_branch2c/gamma/momentum"
  op: "VarHandleOp"
  device: "/job:localhost/replica:0/task:0/device:GPU:0"
  attr {
    key: "container"
    value {
      s: ""
    }
  }
  attr {
    key: "dtype"
    value {
      type: DT_FLOAT
    }
  }
  attr {
    key: "shape"
    value {
      shape {
        dim {
          size: 512
        }
      }
    }
  }
  attr {
    key: "shared_name"
    value {
      s: "training/SGD/bn3c_branch2c/gamma/momentum"
    }
  }
}
node {
  name: "training/SGD/bn3d_branch2a/beta/momentum"
  op: "VarHandleOp"
  device: "/job:localhost/replica:0/task:0/device:GPU:0"
  attr {
    key: "container"
    value {
      s: ""
    }
  }
  attr {
    key: "dtype"
    value {
      type: DT_FLOAT
    }
  }
  attr {
    key: "shape"
    value {
      shape {
        dim {
          size: 128
        }
      }
    }
  }
  attr {
    key: "shared_name"
    value {
      s: "training/SGD/bn3d_branch2a/beta/momentum"
    }
  }
}
node {
  name: "training/SGD/bn3d_branch2a/gamma/momentum"
  op: "VarHandleOp"
  device: "/job:localhost/replica:0/task:0/device:GPU:0"
  attr {
    key: "container"
    value {
      s: ""
    }
  }
  attr {
    key: "dtype"
    value {
      type: DT_FLOAT
    }
  }
  attr {
    key: "shape"
    value {
      shape {
        dim {
          size: 128
        }
      }
    }
  }
  attr {
    key: "shared_name"
    value {
      s: "training/SGD/bn3d_branch2a/gamma/momentum"
    }
  }
}
node {
  name: "training/SGD/bn3d_branch2b/beta/momentum"
  op: "VarHandleOp"
  device: "/job:localhost/replica:0/task:0/device:GPU:0"
  attr {
    key: "container"
    value {
      s: ""
    }
  }
  attr {
    key: "dtype"
    value {
      type: DT_FLOAT
    }
  }
  attr {
    key: "shape"
    value {
      shape {
        dim {
          size: 128
        }
      }
    }
  }
  attr {
    key: "shared_name"
    value {
      s: "training/SGD/bn3d_branch2b/beta/momentum"
    }
  }
}
node {
  name: "training/SGD/bn3d_branch2b/gamma/momentum"
  op: "VarHandleOp"
  device: "/job:localhost/replica:0/task:0/device:GPU:0"
  attr {
    key: "container"
    value {
      s: ""
    }
  }
  attr {
    key: "dtype"
    value {
      type: DT_FLOAT
    }
  }
  attr {
    key: "shape"
    value {
      shape {
        dim {
          size: 128
        }
      }
    }
  }
  attr {
    key: "shared_name"
    value {
      s: "training/SGD/bn3d_branch2b/gamma/momentum"
    }
  }
}
node {
  name: "training/SGD/bn3d_branch2c/beta/momentum"
  op: "VarHandleOp"
  device: "/job:localhost/replica:0/task:0/device:GPU:0"
  attr {
    key: "container"
    value {
      s: ""
    }
  }
  attr {
    key: "dtype"
    value {
      type: DT_FLOAT
    }
  }
  attr {
    key: "shape"
    value {
      shape {
        dim {
          size: 512
        }
      }
    }
  }
  attr {
    key: "shared_name"
    value {
      s: "training/SGD/bn3d_branch2c/beta/momentum"
    }
  }
}
node {
  name: "training/SGD/bn3d_branch2c/gamma/momentum"
  op: "VarHandleOp"
  device: "/job:localhost/replica:0/task:0/device:GPU:0"
  attr {
    key: "container"
    value {
      s: ""
    }
  }
  attr {
    key: "dtype"
    value {
      type: DT_FLOAT
    }
  }
  attr {
    key: "shape"
    value {
      shape {
        dim {
          size: 512
        }
      }
    }
  }
  attr {
    key: "shared_name"
    value {
      s: "training/SGD/bn3d_branch2c/gamma/momentum"
    }
  }
}
node {
  name: "training/SGD/bn4a_branch1/beta/momentum"
  op: "VarHandleOp"
  device: "/job:localhost/replica:0/task:0/device:GPU:0"
  attr {
    key: "container"
    value {
      s: ""
    }
  }
  attr {
    key: "dtype"
    value {
      type: DT_FLOAT
    }
  }
  attr {
    key: "shape"
    value {
      shape {
        dim {
          size: 1024
        }
      }
    }
  }
  attr {
    key: "shared_name"
    value {
      s: "training/SGD/bn4a_branch1/beta/momentum"
    }
  }
}
node {
  name: "training/SGD/bn4a_branch1/gamma/momentum"
  op: "VarHandleOp"
  device: "/job:localhost/replica:0/task:0/device:GPU:0"
  attr {
    key: "container"
    value {
      s: ""
    }
  }
  attr {
    key: "dtype"
    value {
      type: DT_FLOAT
    }
  }
  attr {
    key: "shape"
    value {
      shape {
        dim {
          size: 1024
        }
      }
    }
  }
  attr {
    key: "shared_name"
    value {
      s: "training/SGD/bn4a_branch1/gamma/momentum"
    }
  }
}
node {
  name: "training/SGD/bn4a_branch2a/beta/momentum"
  op: "VarHandleOp"
  device: "/job:localhost/replica:0/task:0/device:GPU:0"
  attr {
    key: "container"
    value {
      s: ""
    }
  }
  attr {
    key: "dtype"
    value {
      type: DT_FLOAT
    }
  }
  attr {
    key: "shape"
    value {
      shape {
        dim {
          size: 256
        }
      }
    }
  }
  attr {
    key: "shared_name"
    value {
      s: "training/SGD/bn4a_branch2a/beta/momentum"
    }
  }
}
node {
  name: "training/SGD/bn4a_branch2a/gamma/momentum"
  op: "VarHandleOp"
  device: "/job:localhost/replica:0/task:0/device:GPU:0"
  attr {
    key: "container"
    value {
      s: ""
    }
  }
  attr {
    key: "dtype"
    value {
      type: DT_FLOAT
    }
  }
  attr {
    key: "shape"
    value {
      shape {
        dim {
          size: 256
        }
      }
    }
  }
  attr {
    key: "shared_name"
    value {
      s: "training/SGD/bn4a_branch2a/gamma/momentum"
    }
  }
}
node {
  name: "training/SGD/bn4a_branch2b/beta/momentum"
  op: "VarHandleOp"
  device: "/job:localhost/replica:0/task:0/device:GPU:0"
  attr {
    key: "container"
    value {
      s: ""
    }
  }
  attr {
    key: "dtype"
    value {
      type: DT_FLOAT
    }
  }
  attr {
    key: "shape"
    value {
      shape {
        dim {
          size: 256
        }
      }
    }
  }
  attr {
    key: "shared_name"
    value {
      s: "training/SGD/bn4a_branch2b/beta/momentum"
    }
  }
}
node {
  name: "training/SGD/bn4a_branch2b/gamma/momentum"
  op: "VarHandleOp"
  device: "/job:localhost/replica:0/task:0/device:GPU:0"
  attr {
    key: "container"
    value {
      s: ""
    }
  }
  attr {
    key: "dtype"
    value {
      type: DT_FLOAT
    }
  }
  attr {
    key: "shape"
    value {
      shape {
        dim {
          size: 256
        }
      }
    }
  }
  attr {
    key: "shared_name"
    value {
      s: "training/SGD/bn4a_branch2b/gamma/momentum"
    }
  }
}
node {
  name: "training/SGD/bn4a_branch2c/beta/momentum"
  op: "VarHandleOp"
  device: "/job:localhost/replica:0/task:0/device:GPU:0"
  attr {
    key: "container"
    value {
      s: ""
    }
  }
  attr {
    key: "dtype"
    value {
      type: DT_FLOAT
    }
  }
  attr {
    key: "shape"
    value {
      shape {
        dim {
          size: 1024
        }
      }
    }
  }
  attr {
    key: "shared_name"
    value {
      s: "training/SGD/bn4a_branch2c/beta/momentum"
    }
  }
}
node {
  name: "training/SGD/bn4a_branch2c/gamma/momentum"
  op: "VarHandleOp"
  device: "/job:localhost/replica:0/task:0/device:GPU:0"
  attr {
    key: "container"
    value {
      s: ""
    }
  }
  attr {
    key: "dtype"
    value {
      type: DT_FLOAT
    }
  }
  attr {
    key: "shape"
    value {
      shape {
        dim {
          size: 1024
        }
      }
    }
  }
  attr {
    key: "shared_name"
    value {
      s: "training/SGD/bn4a_branch2c/gamma/momentum"
    }
  }
}
node {
  name: "training/SGD/bn4b_branch2a/beta/momentum"
  op: "VarHandleOp"
  device: "/job:localhost/replica:0/task:0/device:GPU:0"
  attr {
    key: "container"
    value {
      s: ""
    }
  }
  attr {
    key: "dtype"
    value {
      type: DT_FLOAT
    }
  }
  attr {
    key: "shape"
    value {
      shape {
        dim {
          size: 256
        }
      }
    }
  }
  attr {
    key: "shared_name"
    value {
      s: "training/SGD/bn4b_branch2a/beta/momentum"
    }
  }
}
node {
  name: "training/SGD/bn4b_branch2a/gamma/momentum"
  op: "VarHandleOp"
  device: "/job:localhost/replica:0/task:0/device:GPU:0"
  attr {
    key: "container"
    value {
      s: ""
    }
  }
  attr {
    key: "dtype"
    value {
      type: DT_FLOAT
    }
  }
  attr {
    key: "shape"
    value {
      shape {
        dim {
          size: 256
        }
      }
    }
  }
  attr {
    key: "shared_name"
    value {
      s: "training/SGD/bn4b_branch2a/gamma/momentum"
    }
  }
}
node {
  name: "training/SGD/bn4b_branch2b/beta/momentum"
  op: "VarHandleOp"
  device: "/job:localhost/replica:0/task:0/device:GPU:0"
  attr {
    key: "container"
    value {
      s: ""
    }
  }
  attr {
    key: "dtype"
    value {
      type: DT_FLOAT
    }
  }
  attr {
    key: "shape"
    value {
      shape {
        dim {
          size: 256
        }
      }
    }
  }
  attr {
    key: "shared_name"
    value {
      s: "training/SGD/bn4b_branch2b/beta/momentum"
    }
  }
}
node {
  name: "training/SGD/bn4b_branch2b/gamma/momentum"
  op: "VarHandleOp"
  device: "/job:localhost/replica:0/task:0/device:GPU:0"
  attr {
    key: "container"
    value {
      s: ""
    }
  }
  attr {
    key: "dtype"
    value {
      type: DT_FLOAT
    }
  }
  attr {
    key: "shape"
    value {
      shape {
        dim {
          size: 256
        }
      }
    }
  }
  attr {
    key: "shared_name"
    value {
      s: "training/SGD/bn4b_branch2b/gamma/momentum"
    }
  }
}
node {
  name: "training/SGD/bn4b_branch2c/beta/momentum"
  op: "VarHandleOp"
  device: "/job:localhost/replica:0/task:0/device:GPU:0"
  attr {
    key: "container"
    value {
      s: ""
    }
  }
  attr {
    key: "dtype"
    value {
      type: DT_FLOAT
    }
  }
  attr {
    key: "shape"
    value {
      shape {
        dim {
          size: 1024
        }
      }
    }
  }
  attr {
    key: "shared_name"
    value {
      s: "training/SGD/bn4b_branch2c/beta/momentum"
    }
  }
}
node {
  name: "training/SGD/bn4b_branch2c/gamma/momentum"
  op: "VarHandleOp"
  device: "/job:localhost/replica:0/task:0/device:GPU:0"
  attr {
    key: "container"
    value {
      s: ""
    }
  }
  attr {
    key: "dtype"
    value {
      type: DT_FLOAT
    }
  }
  attr {
    key: "shape"
    value {
      shape {
        dim {
          size: 1024
        }
      }
    }
  }
  attr {
    key: "shared_name"
    value {
      s: "training/SGD/bn4b_branch2c/gamma/momentum"
    }
  }
}
node {
  name: "training/SGD/bn4c_branch2a/beta/momentum"
  op: "VarHandleOp"
  device: "/job:localhost/replica:0/task:0/device:GPU:0"
  attr {
    key: "container"
    value {
      s: ""
    }
  }
  attr {
    key: "dtype"
    value {
      type: DT_FLOAT
    }
  }
  attr {
    key: "shape"
    value {
      shape {
        dim {
          size: 256
        }
      }
    }
  }
  attr {
    key: "shared_name"
    value {
      s: "training/SGD/bn4c_branch2a/beta/momentum"
    }
  }
}
node {
  name: "training/SGD/bn4c_branch2a/gamma/momentum"
  op: "VarHandleOp"
  device: "/job:localhost/replica:0/task:0/device:GPU:0"
  attr {
    key: "container"
    value {
      s: ""
    }
  }
  attr {
    key: "dtype"
    value {
      type: DT_FLOAT
    }
  }
  attr {
    key: "shape"
    value {
      shape {
        dim {
          size: 256
        }
      }
    }
  }
  attr {
    key: "shared_name"
    value {
      s: "training/SGD/bn4c_branch2a/gamma/momentum"
    }
  }
}
node {
  name: "training/SGD/bn4c_branch2b/beta/momentum"
  op: "VarHandleOp"
  device: "/job:localhost/replica:0/task:0/device:GPU:0"
  attr {
    key: "container"
    value {
      s: ""
    }
  }
  attr {
    key: "dtype"
    value {
      type: DT_FLOAT
    }
  }
  attr {
    key: "shape"
    value {
      shape {
        dim {
          size: 256
        }
      }
    }
  }
  attr {
    key: "shared_name"
    value {
      s: "training/SGD/bn4c_branch2b/beta/momentum"
    }
  }
}
node {
  name: "training/SGD/bn4c_branch2b/gamma/momentum"
  op: "VarHandleOp"
  device: "/job:localhost/replica:0/task:0/device:GPU:0"
  attr {
    key: "container"
    value {
      s: ""
    }
  }
  attr {
    key: "dtype"
    value {
      type: DT_FLOAT
    }
  }
  attr {
    key: "shape"
    value {
      shape {
        dim {
          size: 256
        }
      }
    }
  }
  attr {
    key: "shared_name"
    value {
      s: "training/SGD/bn4c_branch2b/gamma/momentum"
    }
  }
}
node {
  name: "training/SGD/bn4c_branch2c/beta/momentum"
  op: "VarHandleOp"
  device: "/job:localhost/replica:0/task:0/device:GPU:0"
  attr {
    key: "container"
    value {
      s: ""
    }
  }
  attr {
    key: "dtype"
    value {
      type: DT_FLOAT
    }
  }
  attr {
    key: "shape"
    value {
      shape {
        dim {
          size: 1024
        }
      }
    }
  }
  attr {
    key: "shared_name"
    value {
      s: "training/SGD/bn4c_branch2c/beta/momentum"
    }
  }
}
node {
  name: "training/SGD/bn4c_branch2c/gamma/momentum"
  op: "VarHandleOp"
  device: "/job:localhost/replica:0/task:0/device:GPU:0"
  attr {
    key: "container"
    value {
      s: ""
    }
  }
  attr {
    key: "dtype"
    value {
      type: DT_FLOAT
    }
  }
  attr {
    key: "shape"
    value {
      shape {
        dim {
          size: 1024
        }
      }
    }
  }
  attr {
    key: "shared_name"
    value {
      s: "training/SGD/bn4c_branch2c/gamma/momentum"
    }
  }
}
node {
  name: "training/SGD/bn4d_branch2a/beta/momentum"
  op: "VarHandleOp"
  device: "/job:localhost/replica:0/task:0/device:GPU:0"
  attr {
    key: "container"
    value {
      s: ""
    }
  }
  attr {
    key: "dtype"
    value {
      type: DT_FLOAT
    }
  }
  attr {
    key: "shape"
    value {
      shape {
        dim {
          size: 256
        }
      }
    }
  }
  attr {
    key: "shared_name"
    value {
      s: "training/SGD/bn4d_branch2a/beta/momentum"
    }
  }
}
node {
  name: "training/SGD/bn4d_branch2a/gamma/momentum"
  op: "VarHandleOp"
  device: "/job:localhost/replica:0/task:0/device:GPU:0"
  attr {
    key: "container"
    value {
      s: ""
    }
  }
  attr {
    key: "dtype"
    value {
      type: DT_FLOAT
    }
  }
  attr {
    key: "shape"
    value {
      shape {
        dim {
          size: 256
        }
      }
    }
  }
  attr {
    key: "shared_name"
    value {
      s: "training/SGD/bn4d_branch2a/gamma/momentum"
    }
  }
}
node {
  name: "training/SGD/bn4d_branch2b/beta/momentum"
  op: "VarHandleOp"
  device: "/job:localhost/replica:0/task:0/device:GPU:0"
  attr {
    key: "container"
    value {
      s: ""
    }
  }
  attr {
    key: "dtype"
    value {
      type: DT_FLOAT
    }
  }
  attr {
    key: "shape"
    value {
      shape {
        dim {
          size: 256
        }
      }
    }
  }
  attr {
    key: "shared_name"
    value {
      s: "training/SGD/bn4d_branch2b/beta/momentum"
    }
  }
}
node {
  name: "training/SGD/bn4d_branch2b/gamma/momentum"
  op: "VarHandleOp"
  device: "/job:localhost/replica:0/task:0/device:GPU:0"
  attr {
    key: "container"
    value {
      s: ""
    }
  }
  attr {
    key: "dtype"
    value {
      type: DT_FLOAT
    }
  }
  attr {
    key: "shape"
    value {
      shape {
        dim {
          size: 256
        }
      }
    }
  }
  attr {
    key: "shared_name"
    value {
      s: "training/SGD/bn4d_branch2b/gamma/momentum"
    }
  }
}
node {
  name: "training/SGD/bn4d_branch2c/beta/momentum"
  op: "VarHandleOp"
  device: "/job:localhost/replica:0/task:0/device:GPU:0"
  attr {
    key: "container"
    value {
      s: ""
    }
  }
  attr {
    key: "dtype"
    value {
      type: DT_FLOAT
    }
  }
  attr {
    key: "shape"
    value {
      shape {
        dim {
          size: 1024
        }
      }
    }
  }
  attr {
    key: "shared_name"
    value {
      s: "training/SGD/bn4d_branch2c/beta/momentum"
    }
  }
}
node {
  name: "training/SGD/bn4d_branch2c/gamma/momentum"
  op: "VarHandleOp"
  device: "/job:localhost/replica:0/task:0/device:GPU:0"
  attr {
    key: "container"
    value {
      s: ""
    }
  }
  attr {
    key: "dtype"
    value {
      type: DT_FLOAT
    }
  }
  attr {
    key: "shape"
    value {
      shape {
        dim {
          size: 1024
        }
      }
    }
  }
  attr {
    key: "shared_name"
    value {
      s: "training/SGD/bn4d_branch2c/gamma/momentum"
    }
  }
}
node {
  name: "training/SGD/bn4e_branch2a/beta/momentum"
  op: "VarHandleOp"
  device: "/job:localhost/replica:0/task:0/device:GPU:0"
  attr {
    key: "container"
    value {
      s: ""
    }
  }
  attr {
    key: "dtype"
    value {
      type: DT_FLOAT
    }
  }
  attr {
    key: "shape"
    value {
      shape {
        dim {
          size: 256
        }
      }
    }
  }
  attr {
    key: "shared_name"
    value {
      s: "training/SGD/bn4e_branch2a/beta/momentum"
    }
  }
}
node {
  name: "training/SGD/bn4e_branch2a/gamma/momentum"
  op: "VarHandleOp"
  device: "/job:localhost/replica:0/task:0/device:GPU:0"
  attr {
    key: "container"
    value {
      s: ""
    }
  }
  attr {
    key: "dtype"
    value {
      type: DT_FLOAT
    }
  }
  attr {
    key: "shape"
    value {
      shape {
        dim {
          size: 256
        }
      }
    }
  }
  attr {
    key: "shared_name"
    value {
      s: "training/SGD/bn4e_branch2a/gamma/momentum"
    }
  }
}
node {
  name: "training/SGD/bn4e_branch2b/beta/momentum"
  op: "VarHandleOp"
  device: "/job:localhost/replica:0/task:0/device:GPU:0"
  attr {
    key: "container"
    value {
      s: ""
    }
  }
  attr {
    key: "dtype"
    value {
      type: DT_FLOAT
    }
  }
  attr {
    key: "shape"
    value {
      shape {
        dim {
          size: 256
        }
      }
    }
  }
  attr {
    key: "shared_name"
    value {
      s: "training/SGD/bn4e_branch2b/beta/momentum"
    }
  }
}
node {
  name: "training/SGD/bn4e_branch2b/gamma/momentum"
  op: "VarHandleOp"
  device: "/job:localhost/replica:0/task:0/device:GPU:0"
  attr {
    key: "container"
    value {
      s: ""
    }
  }
  attr {
    key: "dtype"
    value {
      type: DT_FLOAT
    }
  }
  attr {
    key: "shape"
    value {
      shape {
        dim {
          size: 256
        }
      }
    }
  }
  attr {
    key: "shared_name"
    value {
      s: "training/SGD/bn4e_branch2b/gamma/momentum"
    }
  }
}
node {
  name: "training/SGD/bn4e_branch2c/beta/momentum"
  op: "VarHandleOp"
  device: "/job:localhost/replica:0/task:0/device:GPU:0"
  attr {
    key: "container"
    value {
      s: ""
    }
  }
  attr {
    key: "dtype"
    value {
      type: DT_FLOAT
    }
  }
  attr {
    key: "shape"
    value {
      shape {
        dim {
          size: 1024
        }
      }
    }
  }
  attr {
    key: "shared_name"
    value {
      s: "training/SGD/bn4e_branch2c/beta/momentum"
    }
  }
}
node {
  name: "training/SGD/bn4e_branch2c/gamma/momentum"
  op: "VarHandleOp"
  device: "/job:localhost/replica:0/task:0/device:GPU:0"
  attr {
    key: "container"
    value {
      s: ""
    }
  }
  attr {
    key: "dtype"
    value {
      type: DT_FLOAT
    }
  }
  attr {
    key: "shape"
    value {
      shape {
        dim {
          size: 1024
        }
      }
    }
  }
  attr {
    key: "shared_name"
    value {
      s: "training/SGD/bn4e_branch2c/gamma/momentum"
    }
  }
}
node {
  name: "training/SGD/bn4f_branch2a/beta/momentum"
  op: "VarHandleOp"
  device: "/job:localhost/replica:0/task:0/device:GPU:0"
  attr {
    key: "container"
    value {
      s: ""
    }
  }
  attr {
    key: "dtype"
    value {
      type: DT_FLOAT
    }
  }
  attr {
    key: "shape"
    value {
      shape {
        dim {
          size: 256
        }
      }
    }
  }
  attr {
    key: "shared_name"
    value {
      s: "training/SGD/bn4f_branch2a/beta/momentum"
    }
  }
}
node {
  name: "training/SGD/bn4f_branch2a/gamma/momentum"
  op: "VarHandleOp"
  device: "/job:localhost/replica:0/task:0/device:GPU:0"
  attr {
    key: "container"
    value {
      s: ""
    }
  }
  attr {
    key: "dtype"
    value {
      type: DT_FLOAT
    }
  }
  attr {
    key: "shape"
    value {
      shape {
        dim {
          size: 256
        }
      }
    }
  }
  attr {
    key: "shared_name"
    value {
      s: "training/SGD/bn4f_branch2a/gamma/momentum"
    }
  }
}
node {
  name: "training/SGD/bn4f_branch2b/beta/momentum"
  op: "VarHandleOp"
  device: "/job:localhost/replica:0/task:0/device:GPU:0"
  attr {
    key: "container"
    value {
      s: ""
    }
  }
  attr {
    key: "dtype"
    value {
      type: DT_FLOAT
    }
  }
  attr {
    key: "shape"
    value {
      shape {
        dim {
          size: 256
        }
      }
    }
  }
  attr {
    key: "shared_name"
    value {
      s: "training/SGD/bn4f_branch2b/beta/momentum"
    }
  }
}
node {
  name: "training/SGD/bn4f_branch2b/gamma/momentum"
  op: "VarHandleOp"
  device: "/job:localhost/replica:0/task:0/device:GPU:0"
  attr {
    key: "container"
    value {
      s: ""
    }
  }
  attr {
    key: "dtype"
    value {
      type: DT_FLOAT
    }
  }
  attr {
    key: "shape"
    value {
      shape {
        dim {
          size: 256
        }
      }
    }
  }
  attr {
    key: "shared_name"
    value {
      s: "training/SGD/bn4f_branch2b/gamma/momentum"
    }
  }
}
node {
  name: "training/SGD/bn4f_branch2c/beta/momentum"
  op: "VarHandleOp"
  device: "/job:localhost/replica:0/task:0/device:GPU:0"
  attr {
    key: "container"
    value {
      s: ""
    }
  }
  attr {
    key: "dtype"
    value {
      type: DT_FLOAT
    }
  }
  attr {
    key: "shape"
    value {
      shape {
        dim {
          size: 1024
        }
      }
    }
  }
  attr {
    key: "shared_name"
    value {
      s: "training/SGD/bn4f_branch2c/beta/momentum"
    }
  }
}
node {
  name: "training/SGD/bn4f_branch2c/gamma/momentum"
  op: "VarHandleOp"
  device: "/job:localhost/replica:0/task:0/device:GPU:0"
  attr {
    key: "container"
    value {
      s: ""
    }
  }
  attr {
    key: "dtype"
    value {
      type: DT_FLOAT
    }
  }
  attr {
    key: "shape"
    value {
      shape {
        dim {
          size: 1024
        }
      }
    }
  }
  attr {
    key: "shared_name"
    value {
      s: "training/SGD/bn4f_branch2c/gamma/momentum"
    }
  }
}
node {
  name: "training/SGD/bn5a_branch1/beta/momentum"
  op: "VarHandleOp"
  device: "/job:localhost/replica:0/task:0/device:GPU:0"
  attr {
    key: "container"
    value {
      s: ""
    }
  }
  attr {
    key: "dtype"
    value {
      type: DT_FLOAT
    }
  }
  attr {
    key: "shape"
    value {
      shape {
        dim {
          size: 2048
        }
      }
    }
  }
  attr {
    key: "shared_name"
    value {
      s: "training/SGD/bn5a_branch1/beta/momentum"
    }
  }
}
node {
  name: "training/SGD/bn5a_branch1/gamma/momentum"
  op: "VarHandleOp"
  device: "/job:localhost/replica:0/task:0/device:GPU:0"
  attr {
    key: "container"
    value {
      s: ""
    }
  }
  attr {
    key: "dtype"
    value {
      type: DT_FLOAT
    }
  }
  attr {
    key: "shape"
    value {
      shape {
        dim {
          size: 2048
        }
      }
    }
  }
  attr {
    key: "shared_name"
    value {
      s: "training/SGD/bn5a_branch1/gamma/momentum"
    }
  }
}
node {
  name: "training/SGD/bn5a_branch2a/beta/momentum"
  op: "VarHandleOp"
  device: "/job:localhost/replica:0/task:0/device:GPU:0"
  attr {
    key: "container"
    value {
      s: ""
    }
  }
  attr {
    key: "dtype"
    value {
      type: DT_FLOAT
    }
  }
  attr {
    key: "shape"
    value {
      shape {
        dim {
          size: 512
        }
      }
    }
  }
  attr {
    key: "shared_name"
    value {
      s: "training/SGD/bn5a_branch2a/beta/momentum"
    }
  }
}
node {
  name: "training/SGD/bn5a_branch2a/gamma/momentum"
  op: "VarHandleOp"
  device: "/job:localhost/replica:0/task:0/device:GPU:0"
  attr {
    key: "container"
    value {
      s: ""
    }
  }
  attr {
    key: "dtype"
    value {
      type: DT_FLOAT
    }
  }
  attr {
    key: "shape"
    value {
      shape {
        dim {
          size: 512
        }
      }
    }
  }
  attr {
    key: "shared_name"
    value {
      s: "training/SGD/bn5a_branch2a/gamma/momentum"
    }
  }
}
node {
  name: "training/SGD/bn5a_branch2b/beta/momentum"
  op: "VarHandleOp"
  device: "/job:localhost/replica:0/task:0/device:GPU:0"
  attr {
    key: "container"
    value {
      s: ""
    }
  }
  attr {
    key: "dtype"
    value {
      type: DT_FLOAT
    }
  }
  attr {
    key: "shape"
    value {
      shape {
        dim {
          size: 512
        }
      }
    }
  }
  attr {
    key: "shared_name"
    value {
      s: "training/SGD/bn5a_branch2b/beta/momentum"
    }
  }
}
node {
  name: "training/SGD/bn5a_branch2b/gamma/momentum"
  op: "VarHandleOp"
  device: "/job:localhost/replica:0/task:0/device:GPU:0"
  attr {
    key: "container"
    value {
      s: ""
    }
  }
  attr {
    key: "dtype"
    value {
      type: DT_FLOAT
    }
  }
  attr {
    key: "shape"
    value {
      shape {
        dim {
          size: 512
        }
      }
    }
  }
  attr {
    key: "shared_name"
    value {
      s: "training/SGD/bn5a_branch2b/gamma/momentum"
    }
  }
}
node {
  name: "training/SGD/bn5a_branch2c/beta/momentum"
  op: "VarHandleOp"
  device: "/job:localhost/replica:0/task:0/device:GPU:0"
  attr {
    key: "container"
    value {
      s: ""
    }
  }
  attr {
    key: "dtype"
    value {
      type: DT_FLOAT
    }
  }
  attr {
    key: "shape"
    value {
      shape {
        dim {
          size: 2048
        }
      }
    }
  }
  attr {
    key: "shared_name"
    value {
      s: "training/SGD/bn5a_branch2c/beta/momentum"
    }
  }
}
node {
  name: "training/SGD/bn5a_branch2c/gamma/momentum"
  op: "VarHandleOp"
  device: "/job:localhost/replica:0/task:0/device:GPU:0"
  attr {
    key: "container"
    value {
      s: ""
    }
  }
  attr {
    key: "dtype"
    value {
      type: DT_FLOAT
    }
  }
  attr {
    key: "shape"
    value {
      shape {
        dim {
          size: 2048
        }
      }
    }
  }
  attr {
    key: "shared_name"
    value {
      s: "training/SGD/bn5a_branch2c/gamma/momentum"
    }
  }
}
node {
  name: "training/SGD/bn5b_branch2a/beta/momentum"
  op: "VarHandleOp"
  device: "/job:localhost/replica:0/task:0/device:GPU:0"
  attr {
    key: "container"
    value {
      s: ""
    }
  }
  attr {
    key: "dtype"
    value {
      type: DT_FLOAT
    }
  }
  attr {
    key: "shape"
    value {
      shape {
        dim {
          size: 512
        }
      }
    }
  }
  attr {
    key: "shared_name"
    value {
      s: "training/SGD/bn5b_branch2a/beta/momentum"
    }
  }
}
node {
  name: "training/SGD/bn5b_branch2a/gamma/momentum"
  op: "VarHandleOp"
  device: "/job:localhost/replica:0/task:0/device:GPU:0"
  attr {
    key: "container"
    value {
      s: ""
    }
  }
  attr {
    key: "dtype"
    value {
      type: DT_FLOAT
    }
  }
  attr {
    key: "shape"
    value {
      shape {
        dim {
          size: 512
        }
      }
    }
  }
  attr {
    key: "shared_name"
    value {
      s: "training/SGD/bn5b_branch2a/gamma/momentum"
    }
  }
}
node {
  name: "training/SGD/bn5b_branch2b/beta/momentum"
  op: "VarHandleOp"
  device: "/job:localhost/replica:0/task:0/device:GPU:0"
  attr {
    key: "container"
    value {
      s: ""
    }
  }
  attr {
    key: "dtype"
    value {
      type: DT_FLOAT
    }
  }
  attr {
    key: "shape"
    value {
      shape {
        dim {
          size: 512
        }
      }
    }
  }
  attr {
    key: "shared_name"
    value {
      s: "training/SGD/bn5b_branch2b/beta/momentum"
    }
  }
}
node {
  name: "training/SGD/bn5b_branch2b/gamma/momentum"
  op: "VarHandleOp"
  device: "/job:localhost/replica:0/task:0/device:GPU:0"
  attr {
    key: "container"
    value {
      s: ""
    }
  }
  attr {
    key: "dtype"
    value {
      type: DT_FLOAT
    }
  }
  attr {
    key: "shape"
    value {
      shape {
        dim {
          size: 512
        }
      }
    }
  }
  attr {
    key: "shared_name"
    value {
      s: "training/SGD/bn5b_branch2b/gamma/momentum"
    }
  }
}
node {
  name: "training/SGD/bn5b_branch2c/beta/momentum"
  op: "VarHandleOp"
  device: "/job:localhost/replica:0/task:0/device:GPU:0"
  attr {
    key: "container"
    value {
      s: ""
    }
  }
  attr {
    key: "dtype"
    value {
      type: DT_FLOAT
    }
  }
  attr {
    key: "shape"
    value {
      shape {
        dim {
          size: 2048
        }
      }
    }
  }
  attr {
    key: "shared_name"
    value {
      s: "training/SGD/bn5b_branch2c/beta/momentum"
    }
  }
}
node {
  name: "training/SGD/bn5b_branch2c/gamma/momentum"
  op: "VarHandleOp"
  device: "/job:localhost/replica:0/task:0/device:GPU:0"
  attr {
    key: "container"
    value {
      s: ""
    }
  }
  attr {
    key: "dtype"
    value {
      type: DT_FLOAT
    }
  }
  attr {
    key: "shape"
    value {
      shape {
        dim {
          size: 2048
        }
      }
    }
  }
  attr {
    key: "shared_name"
    value {
      s: "training/SGD/bn5b_branch2c/gamma/momentum"
    }
  }
}
node {
  name: "training/SGD/bn5c_branch2a/beta/momentum"
  op: "VarHandleOp"
  device: "/job:localhost/replica:0/task:0/device:GPU:0"
  attr {
    key: "container"
    value {
      s: ""
    }
  }
  attr {
    key: "dtype"
    value {
      type: DT_FLOAT
    }
  }
  attr {
    key: "shape"
    value {
      shape {
        dim {
          size: 512
        }
      }
    }
  }
  attr {
    key: "shared_name"
    value {
      s: "training/SGD/bn5c_branch2a/beta/momentum"
    }
  }
}
node {
  name: "training/SGD/bn5c_branch2a/gamma/momentum"
  op: "VarHandleOp"
  device: "/job:localhost/replica:0/task:0/device:GPU:0"
  attr {
    key: "container"
    value {
      s: ""
    }
  }
  attr {
    key: "dtype"
    value {
      type: DT_FLOAT
    }
  }
  attr {
    key: "shape"
    value {
      shape {
        dim {
          size: 512
        }
      }
    }
  }
  attr {
    key: "shared_name"
    value {
      s: "training/SGD/bn5c_branch2a/gamma/momentum"
    }
  }
}
node {
  name: "training/SGD/bn5c_branch2b/beta/momentum"
  op: "VarHandleOp"
  device: "/job:localhost/replica:0/task:0/device:GPU:0"
  attr {
    key: "container"
    value {
      s: ""
    }
  }
  attr {
    key: "dtype"
    value {
      type: DT_FLOAT
    }
  }
  attr {
    key: "shape"
    value {
      shape {
        dim {
          size: 512
        }
      }
    }
  }
  attr {
    key: "shared_name"
    value {
      s: "training/SGD/bn5c_branch2b/beta/momentum"
    }
  }
}
node {
  name: "training/SGD/bn5c_branch2b/gamma/momentum"
  op: "VarHandleOp"
  device: "/job:localhost/replica:0/task:0/device:GPU:0"
  attr {
    key: "container"
    value {
      s: ""
    }
  }
  attr {
    key: "dtype"
    value {
      type: DT_FLOAT
    }
  }
  attr {
    key: "shape"
    value {
      shape {
        dim {
          size: 512
        }
      }
    }
  }
  attr {
    key: "shared_name"
    value {
      s: "training/SGD/bn5c_branch2b/gamma/momentum"
    }
  }
}
node {
  name: "training/SGD/bn5c_branch2c/beta/momentum"
  op: "VarHandleOp"
  device: "/job:localhost/replica:0/task:0/device:GPU:0"
  attr {
    key: "container"
    value {
      s: ""
    }
  }
  attr {
    key: "dtype"
    value {
      type: DT_FLOAT
    }
  }
  attr {
    key: "shape"
    value {
      shape {
        dim {
          size: 2048
        }
      }
    }
  }
  attr {
    key: "shared_name"
    value {
      s: "training/SGD/bn5c_branch2c/beta/momentum"
    }
  }
}
node {
  name: "training/SGD/bn5c_branch2c/gamma/momentum"
  op: "VarHandleOp"
  device: "/job:localhost/replica:0/task:0/device:GPU:0"
  attr {
    key: "container"
    value {
      s: ""
    }
  }
  attr {
    key: "dtype"
    value {
      type: DT_FLOAT
    }
  }
  attr {
    key: "shape"
    value {
      shape {
        dim {
          size: 2048
        }
      }
    }
  }
  attr {
    key: "shared_name"
    value {
      s: "training/SGD/bn5c_branch2c/gamma/momentum"
    }
  }
}
node {
  name: "training/SGD/bn_conv1/beta/momentum"
  op: "VarHandleOp"
  device: "/job:localhost/replica:0/task:0/device:GPU:0"
  attr {
    key: "container"
    value {
      s: ""
    }
  }
  attr {
    key: "dtype"
    value {
      type: DT_FLOAT
    }
  }
  attr {
    key: "shape"
    value {
      shape {
        dim {
          size: 64
        }
      }
    }
  }
  attr {
    key: "shared_name"
    value {
      s: "training/SGD/bn_conv1/beta/momentum"
    }
  }
}
node {
  name: "training/SGD/bn_conv1/gamma/momentum"
  op: "VarHandleOp"
  device: "/job:localhost/replica:0/task:0/device:GPU:0"
  attr {
    key: "container"
    value {
      s: ""
    }
  }
  attr {
    key: "dtype"
    value {
      type: DT_FLOAT
    }
  }
  attr {
    key: "shape"
    value {
      shape {
        dim {
          size: 64
        }
      }
    }
  }
  attr {
    key: "shared_name"
    value {
      s: "training/SGD/bn_conv1/gamma/momentum"
    }
  }
}
node {
  name: "training/SGD/conv1/kernel/momentum"
  op: "VarHandleOp"
  device: "/job:localhost/replica:0/task:0/device:GPU:0"
  attr {
    key: "container"
    value {
      s: ""
    }
  }
  attr {
    key: "dtype"
    value {
      type: DT_FLOAT
    }
  }
  attr {
    key: "shape"
    value {
      shape {
        dim {
          size: 7
        }
        dim {
          size: 7
        }
        dim {
          size: 3
        }
        dim {
          size: 64
        }
      }
    }
  }
  attr {
    key: "shared_name"
    value {
      s: "training/SGD/conv1/kernel/momentum"
    }
  }
}
node {
  name: "training/SGD/gradients/loss_1/conv1/kernel/Regularizer/Square_grad/Mul"
  op: "Const"
  device: "/job:localhost/replica:0/task:0/device:GPU:0"
  attr {
    key: "dtype"
    value {
      type: DT_FLOAT
    }
  }
  attr {
    key: "value"
    value {
      tensor {
        dtype: DT_FLOAT
        tensor_shape {
          dim {
            size: 7
          }
          dim {
            size: 7
          }
          dim {
            size: 3
          }
          dim {
            size: 64
          }
        }
        float_val: 0.0002
      }
    }
  }
}
node {
  name: "training/SGD/fc1000/bias/momentum"
  op: "VarHandleOp"
  device: "/job:localhost/replica:0/task:0/device:GPU:0"
  attr {
    key: "container"
    value {
      s: ""
    }
  }
  attr {
    key: "dtype"
    value {
      type: DT_FLOAT
    }
  }
  attr {
    key: "shape"
    value {
      shape {
        dim {
          size: 1001
        }
      }
    }
  }
  attr {
    key: "shared_name"
    value {
      s: "training/SGD/fc1000/bias/momentum"
    }
  }
}
node {
  name: "training/SGD/gradients/loss_1/fc1000/bias/Regularizer/Square_grad/Mul"
  op: "Const"
  device: "/job:localhost/replica:0/task:0/device:GPU:0"
  attr {
    key: "dtype"
    value {
      type: DT_FLOAT
    }
  }
  attr {
    key: "value"
    value {
      tensor {
        dtype: DT_FLOAT
        tensor_shape {
          dim {
            size: 1001
          }
        }
        float_val: 0.0002
      }
    }
  }
}
node {
  name: "training/SGD/fc1000/kernel/momentum"
  op: "VarHandleOp"
  device: "/job:localhost/replica:0/task:0/device:GPU:0"
  attr {
    key: "container"
    value {
      s: ""
    }
  }
  attr {
    key: "dtype"
    value {
      type: DT_FLOAT
    }
  }
  attr {
    key: "shape"
    value {
      shape {
        dim {
          size: 2048
        }
        dim {
          size: 1001
        }
      }
    }
  }
  attr {
    key: "shared_name"
    value {
      s: "training/SGD/fc1000/kernel/momentum"
    }
  }
}
node {
  name: "training/SGD/gradients/loss_1/fc1000/kernel/Regularizer/Square_grad/Mul"
  op: "Const"
  device: "/job:localhost/replica:0/task:0/device:GPU:0"
  attr {
    key: "dtype"
    value {
      type: DT_FLOAT
    }
  }
  attr {
    key: "value"
    value {
      tensor {
        dtype: DT_FLOAT
        tensor_shape {
          dim {
            size: 2048
          }
          dim {
            size: 1001
          }
        }
        float_val: 0.0002
      }
    }
  }
}
node {
  name: "training/SGD/res2a_branch1/kernel/momentum"
  op: "VarHandleOp"
  device: "/job:localhost/replica:0/task:0/device:GPU:0"
  attr {
    key: "container"
    value {
      s: ""
    }
  }
  attr {
    key: "dtype"
    value {
      type: DT_FLOAT
    }
  }
  attr {
    key: "shape"
    value {
      shape {
        dim {
          size: 1
        }
        dim {
          size: 1
        }
        dim {
          size: 64
        }
        dim {
          size: 256
        }
      }
    }
  }
  attr {
    key: "shared_name"
    value {
      s: "training/SGD/res2a_branch1/kernel/momentum"
    }
  }
}
node {
  name: "training/SGD/res2a_branch2a/kernel/momentum"
  op: "VarHandleOp"
  device: "/job:localhost/replica:0/task:0/device:GPU:0"
  attr {
    key: "container"
    value {
      s: ""
    }
  }
  attr {
    key: "dtype"
    value {
      type: DT_FLOAT
    }
  }
  attr {
    key: "shape"
    value {
      shape {
        dim {
          size: 1
        }
        dim {
          size: 1
        }
        dim {
          size: 64
        }
        dim {
          size: 64
        }
      }
    }
  }
  attr {
    key: "shared_name"
    value {
      s: "training/SGD/res2a_branch2a/kernel/momentum"
    }
  }
}
node {
  name: "training/SGD/gradients/loss_1/res2a_branch2a/kernel/Regularizer/Square_grad/Mul"
  op: "Const"
  device: "/job:localhost/replica:0/task:0/device:GPU:0"
  attr {
    key: "dtype"
    value {
      type: DT_FLOAT
    }
  }
  attr {
    key: "value"
    value {
      tensor {
        dtype: DT_FLOAT
        tensor_shape {
          dim {
            size: 1
          }
          dim {
            size: 1
          }
          dim {
            size: 64
          }
          dim {
            size: 64
          }
        }
        float_val: 0.0002
      }
    }
  }
}
node {
  name: "training/SGD/res2a_branch2b/kernel/momentum"
  op: "VarHandleOp"
  device: "/job:localhost/replica:0/task:0/device:GPU:0"
  attr {
    key: "container"
    value {
      s: ""
    }
  }
  attr {
    key: "dtype"
    value {
      type: DT_FLOAT
    }
  }
  attr {
    key: "shape"
    value {
      shape {
        dim {
          size: 3
        }
        dim {
          size: 3
        }
        dim {
          size: 64
        }
        dim {
          size: 64
        }
      }
    }
  }
  attr {
    key: "shared_name"
    value {
      s: "training/SGD/res2a_branch2b/kernel/momentum"
    }
  }
}
node {
  name: "training/SGD/res2a_branch2c/kernel/momentum"
  op: "VarHandleOp"
  device: "/job:localhost/replica:0/task:0/device:GPU:0"
  attr {
    key: "container"
    value {
      s: ""
    }
  }
  attr {
    key: "dtype"
    value {
      type: DT_FLOAT
    }
  }
  attr {
    key: "shape"
    value {
      shape {
        dim {
          size: 1
        }
        dim {
          size: 1
        }
        dim {
          size: 64
        }
        dim {
          size: 256
        }
      }
    }
  }
  attr {
    key: "shared_name"
    value {
      s: "training/SGD/res2a_branch2c/kernel/momentum"
    }
  }
}
node {
  name: "training/SGD/res2b_branch2a/kernel/momentum"
  op: "VarHandleOp"
  device: "/job:localhost/replica:0/task:0/device:GPU:0"
  attr {
    key: "container"
    value {
      s: ""
    }
  }
  attr {
    key: "dtype"
    value {
      type: DT_FLOAT
    }
  }
  attr {
    key: "shape"
    value {
      shape {
        dim {
          size: 1
        }
        dim {
          size: 1
        }
        dim {
          size: 256
        }
        dim {
          size: 64
        }
      }
    }
  }
  attr {
    key: "shared_name"
    value {
      s: "training/SGD/res2b_branch2a/kernel/momentum"
    }
  }
}
node {
  name: "training/SGD/res2b_branch2b/kernel/momentum"
  op: "VarHandleOp"
  device: "/job:localhost/replica:0/task:0/device:GPU:0"
  attr {
    key: "container"
    value {
      s: ""
    }
  }
  attr {
    key: "dtype"
    value {
      type: DT_FLOAT
    }
  }
  attr {
    key: "shape"
    value {
      shape {
        dim {
          size: 3
        }
        dim {
          size: 3
        }
        dim {
          size: 64
        }
        dim {
          size: 64
        }
      }
    }
  }
  attr {
    key: "shared_name"
    value {
      s: "training/SGD/res2b_branch2b/kernel/momentum"
    }
  }
}
node {
  name: "training/SGD/res2b_branch2c/kernel/momentum"
  op: "VarHandleOp"
  device: "/job:localhost/replica:0/task:0/device:GPU:0"
  attr {
    key: "container"
    value {
      s: ""
    }
  }
  attr {
    key: "dtype"
    value {
      type: DT_FLOAT
    }
  }
  attr {
    key: "shape"
    value {
      shape {
        dim {
          size: 1
        }
        dim {
          size: 1
        }
        dim {
          size: 64
        }
        dim {
          size: 256
        }
      }
    }
  }
  attr {
    key: "shared_name"
    value {
      s: "training/SGD/res2b_branch2c/kernel/momentum"
    }
  }
}
node {
  name: "training/SGD/res2c_branch2a/kernel/momentum"
  op: "VarHandleOp"
  device: "/job:localhost/replica:0/task:0/device:GPU:0"
  attr {
    key: "container"
    value {
      s: ""
    }
  }
  attr {
    key: "dtype"
    value {
      type: DT_FLOAT
    }
  }
  attr {
    key: "shape"
    value {
      shape {
        dim {
          size: 1
        }
        dim {
          size: 1
        }
        dim {
          size: 256
        }
        dim {
          size: 64
        }
      }
    }
  }
  attr {
    key: "shared_name"
    value {
      s: "training/SGD/res2c_branch2a/kernel/momentum"
    }
  }
}
node {
  name: "training/SGD/gradients/loss_1/res2c_branch2a/kernel/Regularizer/Square_grad/Mul"
  op: "Const"
  device: "/job:localhost/replica:0/task:0/device:GPU:0"
  attr {
    key: "dtype"
    value {
      type: DT_FLOAT
    }
  }
  attr {
    key: "value"
    value {
      tensor {
        dtype: DT_FLOAT
        tensor_shape {
          dim {
            size: 1
          }
          dim {
            size: 1
          }
          dim {
            size: 256
          }
          dim {
            size: 64
          }
        }
        float_val: 0.0002
      }
    }
  }
}
node {
  name: "training/SGD/res2c_branch2b/kernel/momentum"
  op: "VarHandleOp"
  device: "/job:localhost/replica:0/task:0/device:GPU:0"
  attr {
    key: "container"
    value {
      s: ""
    }
  }
  attr {
    key: "dtype"
    value {
      type: DT_FLOAT
    }
  }
  attr {
    key: "shape"
    value {
      shape {
        dim {
          size: 3
        }
        dim {
          size: 3
        }
        dim {
          size: 64
        }
        dim {
          size: 64
        }
      }
    }
  }
  attr {
    key: "shared_name"
    value {
      s: "training/SGD/res2c_branch2b/kernel/momentum"
    }
  }
}
node {
  name: "training/SGD/gradients/loss_1/res2c_branch2b/kernel/Regularizer/Square_grad/Mul"
  op: "Const"
  device: "/job:localhost/replica:0/task:0/device:GPU:0"
  attr {
    key: "dtype"
    value {
      type: DT_FLOAT
    }
  }
  attr {
    key: "value"
    value {
      tensor {
        dtype: DT_FLOAT
        tensor_shape {
          dim {
            size: 3
          }
          dim {
            size: 3
          }
          dim {
            size: 64
          }
          dim {
            size: 64
          }
        }
        float_val: 0.0002
      }
    }
  }
}
node {
  name: "training/SGD/res2c_branch2c/kernel/momentum"
  op: "VarHandleOp"
  device: "/job:localhost/replica:0/task:0/device:GPU:0"
  attr {
    key: "container"
    value {
      s: ""
    }
  }
  attr {
    key: "dtype"
    value {
      type: DT_FLOAT
    }
  }
  attr {
    key: "shape"
    value {
      shape {
        dim {
          size: 1
        }
        dim {
          size: 1
        }
        dim {
          size: 64
        }
        dim {
          size: 256
        }
      }
    }
  }
  attr {
    key: "shared_name"
    value {
      s: "training/SGD/res2c_branch2c/kernel/momentum"
    }
  }
}
node {
  name: "training/SGD/gradients/loss_1/res2c_branch2c/kernel/Regularizer/Square_grad/Mul"
  op: "Const"
  device: "/job:localhost/replica:0/task:0/device:GPU:0"
  attr {
    key: "dtype"
    value {
      type: DT_FLOAT
    }
  }
  attr {
    key: "value"
    value {
      tensor {
        dtype: DT_FLOAT
        tensor_shape {
          dim {
            size: 1
          }
          dim {
            size: 1
          }
          dim {
            size: 64
          }
          dim {
            size: 256
          }
        }
        float_val: 0.0002
      }
    }
  }
}
node {
  name: "training/SGD/res3a_branch1/kernel/momentum"
  op: "VarHandleOp"
  device: "/job:localhost/replica:0/task:0/device:GPU:0"
  attr {
    key: "container"
    value {
      s: ""
    }
  }
  attr {
    key: "dtype"
    value {
      type: DT_FLOAT
    }
  }
  attr {
    key: "shape"
    value {
      shape {
        dim {
          size: 1
        }
        dim {
          size: 1
        }
        dim {
          size: 256
        }
        dim {
          size: 512
        }
      }
    }
  }
  attr {
    key: "shared_name"
    value {
      s: "training/SGD/res3a_branch1/kernel/momentum"
    }
  }
}
node {
  name: "training/SGD/gradients/loss_1/res3a_branch1/kernel/Regularizer/Square_grad/Mul"
  op: "Const"
  device: "/job:localhost/replica:0/task:0/device:GPU:0"
  attr {
    key: "dtype"
    value {
      type: DT_FLOAT
    }
  }
  attr {
    key: "value"
    value {
      tensor {
        dtype: DT_FLOAT
        tensor_shape {
          dim {
            size: 1
          }
          dim {
            size: 1
          }
          dim {
            size: 256
          }
          dim {
            size: 512
          }
        }
        float_val: 0.0002
      }
    }
  }
}
node {
  name: "training/SGD/res3a_branch2a/kernel/momentum"
  op: "VarHandleOp"
  device: "/job:localhost/replica:0/task:0/device:GPU:0"
  attr {
    key: "container"
    value {
      s: ""
    }
  }
  attr {
    key: "dtype"
    value {
      type: DT_FLOAT
    }
  }
  attr {
    key: "shape"
    value {
      shape {
        dim {
          size: 1
        }
        dim {
          size: 1
        }
        dim {
          size: 256
        }
        dim {
          size: 128
        }
      }
    }
  }
  attr {
    key: "shared_name"
    value {
      s: "training/SGD/res3a_branch2a/kernel/momentum"
    }
  }
}
node {
  name: "training/SGD/gradients/loss_1/res3a_branch2a/kernel/Regularizer/Square_grad/Mul"
  op: "Const"
  device: "/job:localhost/replica:0/task:0/device:GPU:0"
  attr {
    key: "dtype"
    value {
      type: DT_FLOAT
    }
  }
  attr {
    key: "value"
    value {
      tensor {
        dtype: DT_FLOAT
        tensor_shape {
          dim {
            size: 1
          }
          dim {
            size: 1
          }
          dim {
            size: 256
          }
          dim {
            size: 128
          }
        }
        float_val: 0.0002
      }
    }
  }
}
node {
  name: "training/SGD/res3a_branch2b/kernel/momentum"
  op: "VarHandleOp"
  device: "/job:localhost/replica:0/task:0/device:GPU:0"
  attr {
    key: "container"
    value {
      s: ""
    }
  }
  attr {
    key: "dtype"
    value {
      type: DT_FLOAT
    }
  }
  attr {
    key: "shape"
    value {
      shape {
        dim {
          size: 3
        }
        dim {
          size: 3
        }
        dim {
          size: 128
        }
        dim {
          size: 128
        }
      }
    }
  }
  attr {
    key: "shared_name"
    value {
      s: "training/SGD/res3a_branch2b/kernel/momentum"
    }
  }
}
node {
  name: "training/SGD/res3a_branch2c/kernel/momentum"
  op: "VarHandleOp"
  device: "/job:localhost/replica:0/task:0/device:GPU:0"
  attr {
    key: "container"
    value {
      s: ""
    }
  }
  attr {
    key: "dtype"
    value {
      type: DT_FLOAT
    }
  }
  attr {
    key: "shape"
    value {
      shape {
        dim {
          size: 1
        }
        dim {
          size: 1
        }
        dim {
          size: 128
        }
        dim {
          size: 512
        }
      }
    }
  }
  attr {
    key: "shared_name"
    value {
      s: "training/SGD/res3a_branch2c/kernel/momentum"
    }
  }
}
node {
  name: "training/SGD/res3b_branch2a/kernel/momentum"
  op: "VarHandleOp"
  device: "/job:localhost/replica:0/task:0/device:GPU:0"
  attr {
    key: "container"
    value {
      s: ""
    }
  }
  attr {
    key: "dtype"
    value {
      type: DT_FLOAT
    }
  }
  attr {
    key: "shape"
    value {
      shape {
        dim {
          size: 1
        }
        dim {
          size: 1
        }
        dim {
          size: 512
        }
        dim {
          size: 128
        }
      }
    }
  }
  attr {
    key: "shared_name"
    value {
      s: "training/SGD/res3b_branch2a/kernel/momentum"
    }
  }
}
node {
  name: "training/SGD/res3b_branch2b/kernel/momentum"
  op: "VarHandleOp"
  device: "/job:localhost/replica:0/task:0/device:GPU:0"
  attr {
    key: "container"
    value {
      s: ""
    }
  }
  attr {
    key: "dtype"
    value {
      type: DT_FLOAT
    }
  }
  attr {
    key: "shape"
    value {
      shape {
        dim {
          size: 3
        }
        dim {
          size: 3
        }
        dim {
          size: 128
        }
        dim {
          size: 128
        }
      }
    }
  }
  attr {
    key: "shared_name"
    value {
      s: "training/SGD/res3b_branch2b/kernel/momentum"
    }
  }
}
node {
  name: "training/SGD/res3b_branch2c/kernel/momentum"
  op: "VarHandleOp"
  device: "/job:localhost/replica:0/task:0/device:GPU:0"
  attr {
    key: "container"
    value {
      s: ""
    }
  }
  attr {
    key: "dtype"
    value {
      type: DT_FLOAT
    }
  }
  attr {
    key: "shape"
    value {
      shape {
        dim {
          size: 1
        }
        dim {
          size: 1
        }
        dim {
          size: 128
        }
        dim {
          size: 512
        }
      }
    }
  }
  attr {
    key: "shared_name"
    value {
      s: "training/SGD/res3b_branch2c/kernel/momentum"
    }
  }
}
node {
  name: "training/SGD/res3c_branch2a/kernel/momentum"
  op: "VarHandleOp"
  device: "/job:localhost/replica:0/task:0/device:GPU:0"
  attr {
    key: "container"
    value {
      s: ""
    }
  }
  attr {
    key: "dtype"
    value {
      type: DT_FLOAT
    }
  }
  attr {
    key: "shape"
    value {
      shape {
        dim {
          size: 1
        }
        dim {
          size: 1
        }
        dim {
          size: 512
        }
        dim {
          size: 128
        }
      }
    }
  }
  attr {
    key: "shared_name"
    value {
      s: "training/SGD/res3c_branch2a/kernel/momentum"
    }
  }
}
node {
  name: "training/SGD/res3c_branch2b/kernel/momentum"
  op: "VarHandleOp"
  device: "/job:localhost/replica:0/task:0/device:GPU:0"
  attr {
    key: "container"
    value {
      s: ""
    }
  }
  attr {
    key: "dtype"
    value {
      type: DT_FLOAT
    }
  }
  attr {
    key: "shape"
    value {
      shape {
        dim {
          size: 3
        }
        dim {
          size: 3
        }
        dim {
          size: 128
        }
        dim {
          size: 128
        }
      }
    }
  }
  attr {
    key: "shared_name"
    value {
      s: "training/SGD/res3c_branch2b/kernel/momentum"
    }
  }
}
node {
  name: "training/SGD/res3c_branch2c/kernel/momentum"
  op: "VarHandleOp"
  device: "/job:localhost/replica:0/task:0/device:GPU:0"
  attr {
    key: "container"
    value {
      s: ""
    }
  }
  attr {
    key: "dtype"
    value {
      type: DT_FLOAT
    }
  }
  attr {
    key: "shape"
    value {
      shape {
        dim {
          size: 1
        }
        dim {
          size: 1
        }
        dim {
          size: 128
        }
        dim {
          size: 512
        }
      }
    }
  }
  attr {
    key: "shared_name"
    value {
      s: "training/SGD/res3c_branch2c/kernel/momentum"
    }
  }
}
node {
  name: "training/SGD/res3d_branch2a/kernel/momentum"
  op: "VarHandleOp"
  device: "/job:localhost/replica:0/task:0/device:GPU:0"
  attr {
    key: "container"
    value {
      s: ""
    }
  }
  attr {
    key: "dtype"
    value {
      type: DT_FLOAT
    }
  }
  attr {
    key: "shape"
    value {
      shape {
        dim {
          size: 1
        }
        dim {
          size: 1
        }
        dim {
          size: 512
        }
        dim {
          size: 128
        }
      }
    }
  }
  attr {
    key: "shared_name"
    value {
      s: "training/SGD/res3d_branch2a/kernel/momentum"
    }
  }
}
node {
  name: "training/SGD/gradients/loss_1/res3d_branch2a/kernel/Regularizer/Square_grad/Mul"
  op: "Const"
  device: "/job:localhost/replica:0/task:0/device:GPU:0"
  attr {
    key: "dtype"
    value {
      type: DT_FLOAT
    }
  }
  attr {
    key: "value"
    value {
      tensor {
        dtype: DT_FLOAT
        tensor_shape {
          dim {
            size: 1
          }
          dim {
            size: 1
          }
          dim {
            size: 512
          }
          dim {
            size: 128
          }
        }
        float_val: 0.0002
      }
    }
  }
}
node {
  name: "training/SGD/res3d_branch2b/kernel/momentum"
  op: "VarHandleOp"
  device: "/job:localhost/replica:0/task:0/device:GPU:0"
  attr {
    key: "container"
    value {
      s: ""
    }
  }
  attr {
    key: "dtype"
    value {
      type: DT_FLOAT
    }
  }
  attr {
    key: "shape"
    value {
      shape {
        dim {
          size: 3
        }
        dim {
          size: 3
        }
        dim {
          size: 128
        }
        dim {
          size: 128
        }
      }
    }
  }
  attr {
    key: "shared_name"
    value {
      s: "training/SGD/res3d_branch2b/kernel/momentum"
    }
  }
}
node {
  name: "training/SGD/gradients/loss_1/res3d_branch2b/kernel/Regularizer/Square_grad/Mul"
  op: "Const"
  device: "/job:localhost/replica:0/task:0/device:GPU:0"
  attr {
    key: "dtype"
    value {
      type: DT_FLOAT
    }
  }
  attr {
    key: "value"
    value {
      tensor {
        dtype: DT_FLOAT
        tensor_shape {
          dim {
            size: 3
          }
          dim {
            size: 3
          }
          dim {
            size: 128
          }
          dim {
            size: 128
          }
        }
        float_val: 0.0002
      }
    }
  }
}
node {
  name: "training/SGD/res3d_branch2c/kernel/momentum"
  op: "VarHandleOp"
  device: "/job:localhost/replica:0/task:0/device:GPU:0"
  attr {
    key: "container"
    value {
      s: ""
    }
  }
  attr {
    key: "dtype"
    value {
      type: DT_FLOAT
    }
  }
  attr {
    key: "shape"
    value {
      shape {
        dim {
          size: 1
        }
        dim {
          size: 1
        }
        dim {
          size: 128
        }
        dim {
          size: 512
        }
      }
    }
  }
  attr {
    key: "shared_name"
    value {
      s: "training/SGD/res3d_branch2c/kernel/momentum"
    }
  }
}
node {
  name: "training/SGD/gradients/loss_1/res3d_branch2c/kernel/Regularizer/Square_grad/Mul"
  op: "Const"
  device: "/job:localhost/replica:0/task:0/device:GPU:0"
  attr {
    key: "dtype"
    value {
      type: DT_FLOAT
    }
  }
  attr {
    key: "value"
    value {
      tensor {
        dtype: DT_FLOAT
        tensor_shape {
          dim {
            size: 1
          }
          dim {
            size: 1
          }
          dim {
            size: 128
          }
          dim {
            size: 512
          }
        }
        float_val: 0.0002
      }
    }
  }
}
node {
  name: "training/SGD/res4a_branch1/kernel/momentum"
  op: "VarHandleOp"
  device: "/job:localhost/replica:0/task:0/device:GPU:0"
  attr {
    key: "container"
    value {
      s: ""
    }
  }
  attr {
    key: "dtype"
    value {
      type: DT_FLOAT
    }
  }
  attr {
    key: "shape"
    value {
      shape {
        dim {
          size: 1
        }
        dim {
          size: 1
        }
        dim {
          size: 512
        }
        dim {
          size: 1024
        }
      }
    }
  }
  attr {
    key: "shared_name"
    value {
      s: "training/SGD/res4a_branch1/kernel/momentum"
    }
  }
}
node {
  name: "training/SGD/gradients/loss_1/res4a_branch1/kernel/Regularizer/Square_grad/Mul"
  op: "Const"
  device: "/job:localhost/replica:0/task:0/device:GPU:0"
  attr {
    key: "dtype"
    value {
      type: DT_FLOAT
    }
  }
  attr {
    key: "value"
    value {
      tensor {
        dtype: DT_FLOAT
        tensor_shape {
          dim {
            size: 1
          }
          dim {
            size: 1
          }
          dim {
            size: 512
          }
          dim {
            size: 1024
          }
        }
        float_val: 0.0002
      }
    }
  }
}
node {
  name: "training/SGD/res4a_branch2a/kernel/momentum"
  op: "VarHandleOp"
  device: "/job:localhost/replica:0/task:0/device:GPU:0"
  attr {
    key: "container"
    value {
      s: ""
    }
  }
  attr {
    key: "dtype"
    value {
      type: DT_FLOAT
    }
  }
  attr {
    key: "shape"
    value {
      shape {
        dim {
          size: 1
        }
        dim {
          size: 1
        }
        dim {
          size: 512
        }
        dim {
          size: 256
        }
      }
    }
  }
  attr {
    key: "shared_name"
    value {
      s: "training/SGD/res4a_branch2a/kernel/momentum"
    }
  }
}
node {
  name: "training/SGD/gradients/loss_1/res4a_branch2a/kernel/Regularizer/Square_grad/Mul"
  op: "Const"
  device: "/job:localhost/replica:0/task:0/device:GPU:0"
  attr {
    key: "dtype"
    value {
      type: DT_FLOAT
    }
  }
  attr {
    key: "value"
    value {
      tensor {
        dtype: DT_FLOAT
        tensor_shape {
          dim {
            size: 1
          }
          dim {
            size: 1
          }
          dim {
            size: 512
          }
          dim {
            size: 256
          }
        }
        float_val: 0.0002
      }
    }
  }
}
node {
  name: "training/SGD/res4a_branch2b/kernel/momentum"
  op: "VarHandleOp"
  device: "/job:localhost/replica:0/task:0/device:GPU:0"
  attr {
    key: "container"
    value {
      s: ""
    }
  }
  attr {
    key: "dtype"
    value {
      type: DT_FLOAT
    }
  }
  attr {
    key: "shape"
    value {
      shape {
        dim {
          size: 3
        }
        dim {
          size: 3
        }
        dim {
          size: 256
        }
        dim {
          size: 256
        }
      }
    }
  }
  attr {
    key: "shared_name"
    value {
      s: "training/SGD/res4a_branch2b/kernel/momentum"
    }
  }
}
node {
  name: "training/SGD/res4a_branch2c/kernel/momentum"
  op: "VarHandleOp"
  device: "/job:localhost/replica:0/task:0/device:GPU:0"
  attr {
    key: "container"
    value {
      s: ""
    }
  }
  attr {
    key: "dtype"
    value {
      type: DT_FLOAT
    }
  }
  attr {
    key: "shape"
    value {
      shape {
        dim {
          size: 1
        }
        dim {
          size: 1
        }
        dim {
          size: 256
        }
        dim {
          size: 1024
        }
      }
    }
  }
  attr {
    key: "shared_name"
    value {
      s: "training/SGD/res4a_branch2c/kernel/momentum"
    }
  }
}
node {
  name: "training/SGD/res4b_branch2a/kernel/momentum"
  op: "VarHandleOp"
  device: "/job:localhost/replica:0/task:0/device:GPU:0"
  attr {
    key: "container"
    value {
      s: ""
    }
  }
  attr {
    key: "dtype"
    value {
      type: DT_FLOAT
    }
  }
  attr {
    key: "shape"
    value {
      shape {
        dim {
          size: 1
        }
        dim {
          size: 1
        }
        dim {
          size: 1024
        }
        dim {
          size: 256
        }
      }
    }
  }
  attr {
    key: "shared_name"
    value {
      s: "training/SGD/res4b_branch2a/kernel/momentum"
    }
  }
}
node {
  name: "training/SGD/res4b_branch2b/kernel/momentum"
  op: "VarHandleOp"
  device: "/job:localhost/replica:0/task:0/device:GPU:0"
  attr {
    key: "container"
    value {
      s: ""
    }
  }
  attr {
    key: "dtype"
    value {
      type: DT_FLOAT
    }
  }
  attr {
    key: "shape"
    value {
      shape {
        dim {
          size: 3
        }
        dim {
          size: 3
        }
        dim {
          size: 256
        }
        dim {
          size: 256
        }
      }
    }
  }
  attr {
    key: "shared_name"
    value {
      s: "training/SGD/res4b_branch2b/kernel/momentum"
    }
  }
}
node {
  name: "training/SGD/res4b_branch2c/kernel/momentum"
  op: "VarHandleOp"
  device: "/job:localhost/replica:0/task:0/device:GPU:0"
  attr {
    key: "container"
    value {
      s: ""
    }
  }
  attr {
    key: "dtype"
    value {
      type: DT_FLOAT
    }
  }
  attr {
    key: "shape"
    value {
      shape {
        dim {
          size: 1
        }
        dim {
          size: 1
        }
        dim {
          size: 256
        }
        dim {
          size: 1024
        }
      }
    }
  }
  attr {
    key: "shared_name"
    value {
      s: "training/SGD/res4b_branch2c/kernel/momentum"
    }
  }
}
node {
  name: "training/SGD/res4c_branch2a/kernel/momentum"
  op: "VarHandleOp"
  device: "/job:localhost/replica:0/task:0/device:GPU:0"
  attr {
    key: "container"
    value {
      s: ""
    }
  }
  attr {
    key: "dtype"
    value {
      type: DT_FLOAT
    }
  }
  attr {
    key: "shape"
    value {
      shape {
        dim {
          size: 1
        }
        dim {
          size: 1
        }
        dim {
          size: 1024
        }
        dim {
          size: 256
        }
      }
    }
  }
  attr {
    key: "shared_name"
    value {
      s: "training/SGD/res4c_branch2a/kernel/momentum"
    }
  }
}
node {
  name: "training/SGD/res4c_branch2b/kernel/momentum"
  op: "VarHandleOp"
  device: "/job:localhost/replica:0/task:0/device:GPU:0"
  attr {
    key: "container"
    value {
      s: ""
    }
  }
  attr {
    key: "dtype"
    value {
      type: DT_FLOAT
    }
  }
  attr {
    key: "shape"
    value {
      shape {
        dim {
          size: 3
        }
        dim {
          size: 3
        }
        dim {
          size: 256
        }
        dim {
          size: 256
        }
      }
    }
  }
  attr {
    key: "shared_name"
    value {
      s: "training/SGD/res4c_branch2b/kernel/momentum"
    }
  }
}
node {
  name: "training/SGD/res4c_branch2c/kernel/momentum"
  op: "VarHandleOp"
  device: "/job:localhost/replica:0/task:0/device:GPU:0"
  attr {
    key: "container"
    value {
      s: ""
    }
  }
  attr {
    key: "dtype"
    value {
      type: DT_FLOAT
    }
  }
  attr {
    key: "shape"
    value {
      shape {
        dim {
          size: 1
        }
        dim {
          size: 1
        }
        dim {
          size: 256
        }
        dim {
          size: 1024
        }
      }
    }
  }
  attr {
    key: "shared_name"
    value {
      s: "training/SGD/res4c_branch2c/kernel/momentum"
    }
  }
}
node {
  name: "training/SGD/res4d_branch2a/kernel/momentum"
  op: "VarHandleOp"
  device: "/job:localhost/replica:0/task:0/device:GPU:0"
  attr {
    key: "container"
    value {
      s: ""
    }
  }
  attr {
    key: "dtype"
    value {
      type: DT_FLOAT
    }
  }
  attr {
    key: "shape"
    value {
      shape {
        dim {
          size: 1
        }
        dim {
          size: 1
        }
        dim {
          size: 1024
        }
        dim {
          size: 256
        }
      }
    }
  }
  attr {
    key: "shared_name"
    value {
      s: "training/SGD/res4d_branch2a/kernel/momentum"
    }
  }
}
node {
  name: "training/SGD/res4d_branch2b/kernel/momentum"
  op: "VarHandleOp"
  device: "/job:localhost/replica:0/task:0/device:GPU:0"
  attr {
    key: "container"
    value {
      s: ""
    }
  }
  attr {
    key: "dtype"
    value {
      type: DT_FLOAT
    }
  }
  attr {
    key: "shape"
    value {
      shape {
        dim {
          size: 3
        }
        dim {
          size: 3
        }
        dim {
          size: 256
        }
        dim {
          size: 256
        }
      }
    }
  }
  attr {
    key: "shared_name"
    value {
      s: "training/SGD/res4d_branch2b/kernel/momentum"
    }
  }
}
node {
  name: "training/SGD/res4d_branch2c/kernel/momentum"
  op: "VarHandleOp"
  device: "/job:localhost/replica:0/task:0/device:GPU:0"
  attr {
    key: "container"
    value {
      s: ""
    }
  }
  attr {
    key: "dtype"
    value {
      type: DT_FLOAT
    }
  }
  attr {
    key: "shape"
    value {
      shape {
        dim {
          size: 1
        }
        dim {
          size: 1
        }
        dim {
          size: 256
        }
        dim {
…
  name: "training/SGD/gradients/loss_1/res4c_branch2c/kernel/Regularizer/Square_grad/Mul_1"
  op: "Mul"
  input: "loss_1/res4c_branch2c/kernel/Regularizer/Square/ReadVariableOp"
  input: "training/SGD/gradients/loss_1/res4f_branch2c/kernel/Regularizer/Square_grad/Mul"
  device: "/job:localhost/replica:0/task:0/device:GPU:0"
  attr {
    key: "T"
    value {
      type: DT_FLOAT
    }
  }
  attr {
    key: "_class"
    value {
      list {
        s: "loc:@training/SGD/gradients/AddN_27"
      }
    }
  }
}
node {
  name: "loss_1/res4c_branch2c/kernel/Regularizer/Square"
  op: "Square"
  input: "loss_1/res4c_branch2c/kernel/Regularizer/Square/ReadVariableOp"
  device: "/job:localhost/replica:0/task:0/device:GPU:0"
  attr {
    key: "T"
    value {
      type: DT_FLOAT
    }
  }
}
node {
  name: "training/SGD/gradients/loss_1/res4d_branch2a/kernel/Regularizer/Square_grad/Mul_1"
  op: "Mul"
  input: "loss_1/res4d_branch2a/kernel/Regularizer/Square/ReadVariableOp"
  input: "training/SGD/gradients/loss_1/res4f_branch2a/kernel/Regularizer/Square_grad/Mul"
  device: "/job:localhost/replica:0/task:0/device:GPU:0"
  attr {
    key: "T"
    value {
      type: DT_FLOAT
    }
  }
  attr {
    key: "_class"
    value {
      list {
        s: "loc:@training/SGD/gradients/AddN_26"
      }
    }
  }
}
node {
  name: "loss_1/res4d_branch2a/kernel/Regularizer/Square"
  op: "Square"
  input: "loss_1/res4d_branch2a/kernel/Regularizer/Square/ReadVariableOp"
  device: "/job:localhost/replica:0/task:0/device:GPU:0"
  attr {
    key: "T"
    value {
      type: DT_FLOAT
    }
  }
}
node {
  name: "training/SGD/gradients/loss_1/res4d_branch2b/kernel/Regularizer/Square_grad/Mul_1"
  op: "Mul"
  input: "loss_1/res4d_branch2b/kernel/Regularizer/Square/ReadVariableOp"
  input: "training/SGD/gradients/loss_1/res4f_branch2b/kernel/Regularizer/Square_grad/Mul"
  device: "/job:localhost/replica:0/task:0/device:GPU:0"
  attr {
    key: "T"
    value {
      type: DT_FLOAT
    }
  }
  attr {
    key: "_class"
    value {
      list {
        s: "loc:@training/SGD/gradients/AddN_24"
      }
    }
  }
}
node {
  name: "loss_1/res4d_branch2b/kernel/Regularizer/Square"
  op: "Square"
  input: "loss_1/res4d_branch2b/kernel/Regularizer/Square/ReadVariableOp"
  device: "/job:localhost/replica:0/task:0/device:GPU:0"
  attr {
    key: "T"
    value {
      type: DT_FLOAT
    }
  }
}
node {
  name: "training/SGD/gradients/loss_1/res4d_branch2c/kernel/Regularizer/Square_grad/Mul_1"
  op: "Mul"
  input: "loss_1/res4d_branch2c/kernel/Regularizer/Square/ReadVariableOp"
  input: "training/SGD/gradients/loss_1/res4f_branch2c/kernel/Regularizer/Square_grad/Mul"
  device: "/job:localhost/replica:0/task:0/device:GPU:0"
  attr {
    key: "T"
    value {
      type: DT_FLOAT
    }
  }
  attr {
    key: "_class"
    value {
      list {
        s: "loc:@training/SGD/gradients/AddN_23"
      }
    }
  }
}
node {
  name: "loss_1/res4d_branch2c/kernel/Regularizer/Square"
  op: "Square"
  input: "loss_1/res4d_branch2c/kernel/Regularizer/Square/ReadVariableOp"
  device: "/job:localhost/replica:0/task:0/device:GPU:0"
  attr {
    key: "T"
    value {
      type: DT_FLOAT
    }
  }
}
node {
  name: "training/SGD/gradients/loss_1/res4e_branch2a/kernel/Regularizer/Square_grad/Mul_1"
  op: "Mul"
  input: "loss_1/res4e_branch2a/kernel/Regularizer/Square/ReadVariableOp"
  input: "training/SGD/gradients/loss_1/res4f_branch2a/kernel/Regularizer/Square_grad/Mul"
  device: "/job:localhost/replica:0/task:0/device:GPU:0"
  attr {
    key: "T"
    value {
      type: DT_FLOAT
    }
  }
  attr {
    key: "_class"
    value {
      list {
        s: "loc:@training/SGD/gradients/AddN_22"
      }
    }
  }
}
node {
  name: "loss_1/res4e_branch2a/kernel/Regularizer/Square"
  op: "Square"
  input: "loss_1/res4e_branch2a/kernel/Regularizer/Square/ReadVariableOp"
  device: "/job:localhost/replica:0/task:0/device:GPU:0"
  attr {
    key: "T"
    value {
      type: DT_FLOAT
    }
  }
}
node {
  name: "training/SGD/gradients/loss_1/res4e_branch2b/kernel/Regularizer/Square_grad/Mul_1"
  op: "Mul"
  input: "loss_1/res4e_branch2b/kernel/Regularizer/Square/ReadVariableOp"
  input: "training/SGD/gradients/loss_1/res4f_branch2b/kernel/Regularizer/Square_grad/Mul"
  device: "/job:localhost/replica:0/task:0/device:GPU:0"
  attr {
    key: "T"
    value {
      type: DT_FLOAT
    }
  }
  attr {
    key: "_class"
    value {
      list {
        s: "loc:@training/SGD/gradients/AddN_20"
      }
    }
  }
}
node {
  name: "loss_1/res4e_branch2b/kernel/Regularizer/Square"
  op: "Square"
  input: "loss_1/res4e_branch2b/kernel/Regularizer/Square/ReadVariableOp"
  device: "/job:localhost/replica:0/task:0/device:GPU:0"
  attr {
    key: "T"
    value {
      type: DT_FLOAT
    }
  }
}
node {
  name: "training/SGD/gradients/loss_1/res4e_branch2c/kernel/Regularizer/Square_grad/Mul_1"
  op: "Mul"
  input: "loss_1/res4e_branch2c/kernel/Regularizer/Square/ReadVariableOp"
  input: "training/SGD/gradients/loss_1/res4f_branch2c/kernel/Regularizer/Square_grad/Mul"
  device: "/job:localhost/replica:0/task:0/device:GPU:0"
  attr {
    key: "T"
    value {
      type: DT_FLOAT
    }
  }
  attr {
    key: "_class"
    value {
      list {
        s: "loc:@training/SGD/gradients/AddN_19"
      }
    }
  }
}
node {
  name: "loss_1/res4e_branch2c/kernel/Regularizer/Square"
  op: "Square"
  input: "loss_1/res4e_branch2c/kernel/Regularizer/Square/ReadVariableOp"
  device: "/job:localhost/replica:0/task:0/device:GPU:0"
  attr {
    key: "T"
    value {
      type: DT_FLOAT
    }
  }
}
node {
  name: "training/SGD/gradients/loss_1/res4f_branch2a/kernel/Regularizer/Square_grad/Mul_1"
  op: "Mul"
  input: "loss_1/res4f_branch2a/kernel/Regularizer/Square/ReadVariableOp"
  input: "training/SGD/gradients/loss_1/res4f_branch2a/kernel/Regularizer/Square_grad/Mul"
  device: "/job:localhost/replica:0/task:0/device:GPU:0"
  attr {
    key: "T"
    value {
      type: DT_FLOAT
    }
  }
  attr {
    key: "_class"
    value {
      list {
        s: "loc:@training/SGD/gradients/AddN_18"
      }
    }
  }
}
node {
  name: "loss_1/res4f_branch2a/kernel/Regularizer/Square"
  op: "Square"
  input: "loss_1/res4f_branch2a/kernel/Regularizer/Square/ReadVariableOp"
  device: "/job:localhost/replica:0/task:0/device:GPU:0"
  attr {
    key: "T"
    value {
      type: DT_FLOAT
    }
  }
}
node {
  name: "training/SGD/gradients/loss_1/res4f_branch2b/kernel/Regularizer/Square_grad/Mul_1"
  op: "Mul"
  input: "loss_1/res4f_branch2b/kernel/Regularizer/Square/ReadVariableOp"
  input: "training/SGD/gradients/loss_1/res4f_branch2b/kernel/Regularizer/Square_grad/Mul"
  device: "/job:localhost/replica:0/task:0/device:GPU:0"
  attr {
    key: "T"
    value {
      type: DT_FLOAT
    }
  }
  attr {
    key: "_class"
    value {
      list {
        s: "loc:@training/SGD/gradients/AddN_16"
      }
    }
  }
}
node {
  name: "loss_1/res4f_branch2b/kernel/Regularizer/Square"
  op: "Square"
  input: "loss_1/res4f_branch2b/kernel/Regularizer/Square/ReadVariableOp"
  device: "/job:localhost/replica:0/task:0/device:GPU:0"
  attr {
    key: "T"
    value {
      type: DT_FLOAT
    }
  }
}
node {
  name: "training/SGD/gradients/loss_1/res4f_branch2c/kernel/Regularizer/Square_grad/Mul_1"
  op: "Mul"
  input: "loss_1/res4f_branch2c/kernel/Regularizer/Square/ReadVariableOp"
  input: "training/SGD/gradients/loss_1/res4f_branch2c/kernel/Regularizer/Square_grad/Mul"
  device: "/job:localhost/replica:0/task:0/device:GPU:0"
  attr {
    key: "T"
    value {
      type: DT_FLOAT
    }
  }
  attr {
    key: "_class"
    value {
      list {
        s: "loc:@training/SGD/gradients/AddN_15"
      }
    }
  }
}
node {
  name: "loss_1/res4f_branch2c/kernel/Regularizer/Square"
  op: "Square"
  input: "loss_1/res4f_branch2c/kernel/Regularizer/Square/ReadVariableOp"
  device: "/job:localhost/replica:0/task:0/device:GPU:0"
  attr {
    key: "T"
    value {
      type: DT_FLOAT
    }
  }
}
node {
  name: "training/SGD/gradients/loss_1/res5a_branch2a/kernel/Regularizer/Square_grad/Mul_1"
  op: "Mul"
  input: "loss_1/res5a_branch2a/kernel/Regularizer/Square/ReadVariableOp"
  input: "training/SGD/gradients/loss_1/res5a_branch2a/kernel/Regularizer/Square_grad/Mul"
  device: "/job:localhost/replica:0/task:0/device:GPU:0"
  attr {
    key: "T"
    value {
      type: DT_FLOAT
    }
  }
  attr {
    key: "_class"
    value {
      list {
        s: "loc:@training/SGD/gradients/AddN_14"
      }
    }
  }
}
node {
  name: "loss_1/res5a_branch2a/kernel/Regularizer/Square"
  op: "Square"
  input: "loss_1/res5a_branch2a/kernel/Regularizer/Square/ReadVariableOp"
  device: "/job:localhost/replica:0/task:0/device:GPU:0"
  attr {
    key: "T"
    value {
      type: DT_FLOAT
    }
  }
}
node {
  name: "training/SGD/gradients/loss_1/res5a_branch2b/kernel/Regularizer/Square_grad/Mul_1"
  op: "Mul"
  input: "loss_1/res5a_branch2b/kernel/Regularizer/Square/ReadVariableOp"
  input: "training/SGD/gradients/loss_1/res5c_branch2b/kernel/Regularizer/Square_grad/Mul"
  device: "/job:localhost/replica:0/task:0/device:GPU:0"
  attr {
    key: "T"
    value {
      type: DT_FLOAT
    }
  }
  attr {
    key: "_class"
    value {
      list {
        s: "loc:@training/SGD/gradients/AddN_12"
      }
    }
  }
}
node {
  name: "loss_1/res5a_branch2b/kernel/Regularizer/Square"
  op: "Square"
  input: "loss_1/res5a_branch2b/kernel/Regularizer/Square/ReadVariableOp"
  device: "/job:localhost/replica:0/task:0/device:GPU:0"
  attr {
    key: "T"
    value {
      type: DT_FLOAT
    }
  }
}
node {
  name: "training/SGD/gradients/loss_1/res5a_branch2c/kernel/Regularizer/Square_grad/Mul_1"
  op: "Mul"
  input: "loss_1/res5a_branch2c/kernel/Regularizer/Square/ReadVariableOp"
  input: "training/SGD/gradients/loss_1/res5c_branch2c/kernel/Regularizer/Square_grad/Mul"
  device: "/job:localhost/replica:0/task:0/device:GPU:0"
  attr {
    key: "T"
    value {
      type: DT_FLOAT
    }
  }
  attr {
    key: "_class"
    value {
      list {
        s: "loc:@training/SGD/gradients/AddN_10"
      }
    }
  }
}
node {
  name: "loss_1/res5a_branch2c/kernel/Regularizer/Square"
  op: "Square"
  input: "loss_1/res5a_branch2c/kernel/Regularizer/Square/ReadVariableOp"
  device: "/job:localhost/replica:0/task:0/device:GPU:0"
  attr {
    key: "T"
    value {
      type: DT_FLOAT
    }
  }
}
node {
  name: "training/SGD/gradients/loss_1/res5b_branch2a/kernel/Regularizer/Square_grad/Mul_1"
  op: "Mul"
  input: "loss_1/res5b_branch2a/kernel/Regularizer/Square/ReadVariableOp"
  input: "training/SGD/gradients/loss_1/res5c_branch2a/kernel/Regularizer/Square_grad/Mul"
  device: "/job:localhost/replica:0/task:0/device:GPU:0"
  attr {
    key: "T"
    value {
      type: DT_FLOAT
    }
  }
  attr {
    key: "_class"
    value {
      list {
        s: "loc:@training/SGD/gradients/AddN_9"
      }
    }
  }
}
node {
  name: "loss_1/res5b_branch2a/kernel/Regularizer/Square"
  op: "Square"
  input: "loss_1/res5b_branch2a/kernel/Regularizer/Square/ReadVariableOp"
  device: "/job:localhost/replica:0/task:0/device:GPU:0"
  attr {
    key: "T"
    value {
      type: DT_FLOAT
    }
  }
}
node {
  name: "training/SGD/gradients/loss_1/res5b_branch2b/kernel/Regularizer/Square_grad/Mul_1"
  op: "Mul"
  input: "loss_1/res5b_branch2b/kernel/Regularizer/Square/ReadVariableOp"
  input: "training/SGD/gradients/loss_1/res5c_branch2b/kernel/Regularizer/Square_grad/Mul"
  device: "/job:localhost/replica:0/task:0/device:GPU:0"
  attr {
    key: "T"
    value {
      type: DT_FLOAT
    }
  }
  attr {
    key: "_class"
    value {
      list {
        s: "loc:@training/SGD/gradients/AddN_7"
      }
    }
  }
}
node {
  name: "loss_1/res5b_branch2b/kernel/Regularizer/Square"
  op: "Square"
  input: "loss_1/res5b_branch2b/kernel/Regularizer/Square/ReadVariableOp"
  device: "/job:localhost/replica:0/task:0/device:GPU:0"
  attr {
    key: "T"
    value {
      type: DT_FLOAT
    }
  }
}
node {
  name: "training/SGD/gradients/loss_1/res5b_branch2c/kernel/Regularizer/Square_grad/Mul_1"
  op: "Mul"
  input: "loss_1/res5b_branch2c/kernel/Regularizer/Square/ReadVariableOp"
  input: "training/SGD/gradients/loss_1/res5c_branch2c/kernel/Regularizer/Square_grad/Mul"
  device: "/job:localhost/replica:0/task:0/device:GPU:0"
  attr {
    key: "T"
    value {
      type: DT_FLOAT
    }
  }
  attr {
    key: "_class"
    value {
      list {
        s: "loc:@training/SGD/gradients/AddN_6"
      }
    }
  }
}
node {
  name: "loss_1/res5b_branch2c/kernel/Regularizer/Square"
  op: "Square"
  input: "loss_1/res5b_branch2c/kernel/Regularizer/Square/ReadVariableOp"
  device: "/job:localhost/replica:0/task:0/device:GPU:0"
  attr {
    key: "T"
    value {
      type: DT_FLOAT
    }
  }
}
node {
  name: "training/SGD/gradients/loss_1/res5c_branch2a/kernel/Regularizer/Square_grad/Mul_1"
  op: "Mul"
  input: "loss_1/res5c_branch2a/kernel/Regularizer/Square/ReadVariableOp"
  input: "training/SGD/gradients/loss_1/res5c_branch2a/kernel/Regularizer/Square_grad/Mul"
  device: "/job:localhost/replica:0/task:0/device:GPU:0"
  attr {
    key: "T"
    value {
      type: DT_FLOAT
    }
  }
  attr {
    key: "_class"
    value {
      list {
        s: "loc:@training/SGD/gradients/AddN_5"
      }
    }
  }
}
node {
  name: "loss_1/res5c_branch2a/kernel/Regularizer/Square"
  op: "Square"
  input: "loss_1/res5c_branch2a/kernel/Regularizer/Square/ReadVariableOp"
  device: "/job:localhost/replica:0/task:0/device:GPU:0"
  attr {
    key: "T"
    value {
      type: DT_FLOAT
    }
  }
}
node {
  name: "training/SGD/gradients/loss_1/res5c_branch2b/kernel/Regularizer/Square_grad/Mul_1"
  op: "Mul"
  input: "loss_1/res5c_branch2b/kernel/Regularizer/Square/ReadVariableOp"
  input: "training/SGD/gradients/loss_1/res5c_branch2b/kernel/Regularizer/Square_grad/Mul"
  device: "/job:localhost/replica:0/task:0/device:GPU:0"
  attr {
    key: "T"
    value {
      type: DT_FLOAT
    }
  }
  attr {
    key: "_class"
    value {
      list {
        s: "loc:@training/SGD/gradients/AddN_3"
      }
    }
  }
}
node {
  name: "loss_1/res5c_branch2b/kernel/Regularizer/Square"
  op: "Square"
  input: "loss_1/res5c_branch2b/kernel/Regularizer/Square/ReadVariableOp"
  device: "/job:localhost/replica:0/task:0/device:GPU:0"
  attr {
    key: "T"
    value {
      type: DT_FLOAT
    }
  }
}
node {
  name: "training/SGD/gradients/loss_1/res5c_branch2c/kernel/Regularizer/Square_grad/Mul_1"
  op: "Mul"
  input: "loss_1/res5c_branch2c/kernel/Regularizer/Square/ReadVariableOp"
  input: "training/SGD/gradients/loss_1/res5c_branch2c/kernel/Regularizer/Square_grad/Mul"
  device: "/job:localhost/replica:0/task:0/device:GPU:0"
  attr {
    key: "T"
    value {
      type: DT_FLOAT
    }
  }
  attr {
    key: "_class"
    value {
      list {
        s: "loc:@training/SGD/gradients/AddN_2"
      }
    }
  }
}
node {
  name: "loss_1/res5c_branch2c/kernel/Regularizer/Square"
  op: "Square"
  input: "loss_1/res5c_branch2c/kernel/Regularizer/Square/ReadVariableOp"
  device: "/job:localhost/replica:0/task:0/device:GPU:0"
  attr {
    key: "T"
    value {
      type: DT_FLOAT
    }
  }
}
node {
  name: "training/SGD/gradients/loss_1/fc1000/kernel/Regularizer/Square_grad/Mul_1"
  op: "Mul"
  input: "loss_1/fc1000/kernel/Regularizer/Square/ReadVariableOp"
  input: "training/SGD/gradients/loss_1/fc1000/kernel/Regularizer/Square_grad/Mul"
  device: "/job:localhost/replica:0/task:0/device:GPU:0"
  attr {
    key: "T"
    value {
      type: DT_FLOAT
    }
  }
  attr {
    key: "_class"
    value {
      list {
        s: "loc:@training/SGD/gradients/AddN_1"
      }
    }
  }
}
node {
  name: "loss_1/fc1000/kernel/Regularizer/Square"
  op: "Square"
  input: "loss_1/fc1000/kernel/Regularizer/Square/ReadVariableOp"
  device: "/job:localhost/replica:0/task:0/device:GPU:0"
  attr {
    key: "T"
    value {
      type: DT_FLOAT
    }
  }
}
node {
  name: "training/SGD/gradients/loss_1/fc1000/bias/Regularizer/Square_grad/Mul_1"
  op: "Mul"
  input: "loss_1/fc1000/bias/Regularizer/Square/ReadVariableOp"
  input: "training/SGD/gradients/loss_1/fc1000/bias/Regularizer/Square_grad/Mul"
  device: "/job:localhost/replica:0/task:0/device:GPU:0"
  attr {
    key: "T"
    value {
      type: DT_FLOAT
    }
  }
  attr {
    key: "_class"
    value {
      list {
        s: "loc:@training/SGD/gradients/AddN"
      }
    }
  }
}
node {
  name: "loss_1/fc1000/bias/Regularizer/Square"
  op: "Square"
  input: "loss_1/fc1000/bias/Regularizer/Square/ReadVariableOp"
  device: "/job:localhost/replica:0/task:0/device:GPU:0"
  attr {
    key: "T"
    value {
      type: DT_FLOAT
    }
  }
}
node {
  name: "loss_1/activation_49_loss/Cast"
  op: "Cast"
  input: "loss_1/activation_49_loss/Reshape"
  device: "/job:localhost/replica:0/task:0/device:GPU:0"
  attr {
    key: "DstT"
    value {
      type: DT_INT64
    }
  }
  attr {
    key: "SrcT"
    value {
      type: DT_FLOAT
    }
  }
  attr {
    key: "Truncate"
    value {
      b: false
    }
  }
}
node {
  name: "loss_1/res5a_branch1/kernel/Regularizer/Sum"
  op: "Sum"
  input: "loss_1/res5a_branch1/kernel/Regularizer/Square"
  input: "loss_1/res5c_branch2c/kernel/Regularizer/Const"
  device: "/job:localhost/replica:0/task:0/device:GPU:0"
  attr {
    key: "T"
    value {
      type: DT_FLOAT
    }
  }
  attr {
    key: "Tidx"
    value {
      type: DT_INT32
    }
  }
  attr {
    key: "keep_dims"
    value {
      b: false
    }
  }
}
node {
  name: "loss_1/res4a_branch1/kernel/Regularizer/Sum"
  op: "Sum"
  input: "loss_1/res4a_branch1/kernel/Regularizer/Square"
  input: "loss_1/res5c_branch2c/kernel/Regularizer/Const"
  device: "/job:localhost/replica:0/task:0/device:GPU:0"
  attr {
    key: "T"
    value {
      type: DT_FLOAT
    }
  }
  attr {
    key: "Tidx"
    value {
      type: DT_INT32
    }
  }
  attr {
    key: "keep_dims"
    value {
      b: false
    }
  }
}
node {
  name: "loss_1/res3a_branch1/kernel/Regularizer/Sum"
  op: "Sum"
  input: "loss_1/res3a_branch1/kernel/Regularizer/Square"
  input: "loss_1/res5c_branch2c/kernel/Regularizer/Const"
  device: "/job:localhost/replica:0/task:0/device:GPU:0"
  attr {
    key: "T"
    value {
      type: DT_FLOAT
    }
  }
  attr {
    key: "Tidx"
    value {
      type: DT_INT32
    }
  }
  attr {
    key: "keep_dims"
    value {
      b: false
    }
  }
}
node {
  name: "loss_1/res2a_branch1/kernel/Regularizer/Sum"
  op: "Sum"
  input: "loss_1/res2a_branch1/kernel/Regularizer/Square"
  input: "loss_1/res5c_branch2c/kernel/Regularizer/Const"
  device: "/job:localhost/replica:0/task:0/device:GPU:0"
  attr {
    key: "T"
    value {
      type: DT_FLOAT
    }
  }
  attr {
    key: "Tidx"
    value {
      type: DT_INT32
    }
  }
  attr {
    key: "keep_dims"
    value {
      b: false
    }
  }
}
node {
  name: "ConstantFolding/training/SGD/gradients/conv1_1/Conv2D_grad/ShapeN-matshapes-1"
  op: "Const"
  input: "^conv1_1/Conv2D/ReadVariableOp"
  input: "^conv1_pad_1/Pad"
  device: "/job:localhost/replica:0/task:0/device:GPU:0"
  attr {
    key: "dtype"
    value {
      type: DT_INT32
    }
  }
  attr {
    key: "value"
    value {
      tensor {
        dtype: DT_INT32
        tensor_shape {
          dim {
            size: 4
          }
        }
        tensor_content: "\007\000\000\000\007\000\000\000\003\000\000\000@\000\000\000"
      }
    }
  }
}
node {
  name: "conv1_1/Conv2D"
  op: "Conv2D"
  input: "conv1_pad_1/Pad"
  input: "conv1_1/Conv2D/ReadVariableOp"
  device: "/job:localhost/replica:0/task:0/device:GPU:0"
  attr {
    key: "T"
    value {
      type: DT_FLOAT
    }
  }
  attr {
    key: "data_format"
    value {
      s: "NCHW"
    }
  }
  attr {
    key: "dilations"
    value {
      list {
        i: 1
        i: 1
        i: 1
        i: 1
      }
    }
  }
  attr {
    key: "explicit_paddings"
    value {
      list {
      }
    }
  }
  attr {
    key: "padding"
    value {
      s: "VALID"
    }
  }
  attr {
    key: "strides"
    value {
      list {
        i: 1
        i: 1
        i: 2
        i: 2
      }
    }
  }
  attr {
    key: "use_cudnn_on_gpu"
    value {
      b: true
    }
  }
}
node {
  name: "loss_1/conv1/kernel/Regularizer/Sum"
  op: "Sum"
  input: "loss_1/conv1/kernel/Regularizer/Square"
  input: "loss_1/res5c_branch2c/kernel/Regularizer/Const"
  device: "/job:localhost/replica:0/task:0/device:GPU:0"
  attr {
    key: "T"
    value {
      type: DT_FLOAT
    }
  }
  attr {
    key: "Tidx"
    value {
      type: DT_INT32
    }
  }
  attr {
    key: "keep_dims"
    value {
      b: false
    }
  }
}
node {
  name: "loss_1/res2a_branch2a/kernel/Regularizer/Sum"
  op: "Sum"
  input: "loss_1/res2a_branch2a/kernel/Regularizer/Square"
  input: "loss_1/res5c_branch2c/kernel/Regularizer/Const"
  device: "/job:localhost/replica:0/task:0/device:GPU:0"
  attr {
    key: "T"
    value {
      type: DT_FLOAT
    }
  }
  attr {
    key: "Tidx"
    value {
      type: DT_INT32
    }
  }
  attr {
    key: "keep_dims"
    value {
      b: false
    }
  }
}
node {
  name: "loss_1/res2a_branch2b/kernel/Regularizer/Sum"
  op: "Sum"
  input: "loss_1/res2a_branch2b/kernel/Regularizer/Square"
  input: "loss_1/res5c_branch2c/kernel/Regularizer/Const"
  device: "/job:localhost/replica:0/task:0/device:GPU:0"
  attr {
    key: "T"
    value {
      type: DT_FLOAT
    }
  }
  attr {
    key: "Tidx"
    value {
      type: DT_INT32
    }
  }
  attr {
    key: "keep_dims"
    value {
      b: false
    }
  }
}
node {
  name: "loss_1/res2a_branch2c/kernel/Regularizer/Sum"
  op: "Sum"
  input: "loss_1/res2a_branch2c/kernel/Regularizer/Square"
  input: "loss_1/res5c_branch2c/kernel/Regularizer/Const"
  device: "/job:localhost/replica:0/task:0/device:GPU:0"
  attr {
    key: "T"
    value {
      type: DT_FLOAT
    }
  }
  attr {
    key: "Tidx"
    value {
      type: DT_INT32
    }
  }
  attr {
    key: "keep_dims"
    value {
      b: false
    }
  }
}
node {
  name: "loss_1/res2b_branch2a/kernel/Regularizer/Sum"
  op: "Sum"
  input: "loss_1/res2b_branch2a/kernel/Regularizer/Square"
  input: "loss_1/res5c_branch2c/kernel/Regularizer/Const"
  device: "/job:localhost/replica:0/task:0/device:GPU:0"
  attr {
    key: "T"
    value {
      type: DT_FLOAT
    }
  }
  attr {
    key: "Tidx"
    value {
      type: DT_INT32
    }
  }
  attr {
    key: "keep_dims"
    value {
      b: false
    }
  }
}
node {
  name: "loss_1/res2b_branch2b/kernel/Regularizer/Sum"
  op: "Sum"
  input: "loss_1/res2b_branch2b/kernel/Regularizer/Square"
  input: "loss_1/res5c_branch2c/kernel/Regularizer/Const"
  device: "/job:localhost/replica:0/task:0/device:GPU:0"
  attr {
    key: "T"
    value {
      type: DT_FLOAT
    }
  }
  attr {
    key: "Tidx"
    value {
      type: DT_INT32
    }
  }
  attr {
    key: "keep_dims"
    value {
      b: false
    }
  }
}
node {
  name: "loss_1/res2b_branch2c/kernel/Regularizer/Sum"
  op: "Sum"
  input: "loss_1/res2b_branch2c/kernel/Regularizer/Square"
  input: "loss_1/res5c_branch2c/kernel/Regularizer/Const"
  device: "/job:localhost/replica:0/task:0/device:GPU:0"
  attr {
    key: "T"
    value {
      type: DT_FLOAT
    }
  }
  attr {
    key: "Tidx"
    value {
      type: DT_INT32
    }
  }
  attr {
    key: "keep_dims"
    value {
      b: false
    }
  }
}
node {
  name: "loss_1/res2c_branch2a/kernel/Regularizer/Sum"
  op: "Sum"
  input: "loss_1/res2c_branch2a/kernel/Regularizer/Square"
  input: "loss_1/res5c_branch2c/kernel/Regularizer/Const"
  device: "/job:localhost/replica:0/task:0/device:GPU:0"
  attr {
    key: "T"
    value {
      type: DT_FLOAT
    }
  }
  attr {
    key: "Tidx"
    value {
      type: DT_INT32
    }
  }
  attr {
    key: "keep_dims"
    value {
      b: false
    }
  }
}
node {
  name: "loss_1/res2c_branch2b/kernel/Regularizer/Sum"
  op: "Sum"
  input: "loss_1/res2c_branch2b/kernel/Regularizer/Square"
  input: "loss_1/res5c_branch2c/kernel/Regularizer/Const"
  device: "/job:localhost/replica:0/task:0/device:GPU:0"
  attr {
    key: "T"
    value {
      type: DT_FLOAT
    }
  }
  attr {
    key: "Tidx"
    value {
      type: DT_INT32
    }
  }
  attr {
    key: "keep_dims"
    value {
      b: false
    }
  }
}
node {
  name: "loss_1/res2c_branch2c/kernel/Regularizer/Sum"
  op: "Sum"
  input: "loss_1/res2c_branch2c/kernel/Regularizer/Square"
  input: "loss_1/res5c_branch2c/kernel/Regularizer/Const"
  device: "/job:localhost/replica:0/task:0/device:GPU:0"
  attr {
    key: "T"
    value {
      type: DT_FLOAT
    }
  }
  attr {
    key: "Tidx"
    value {
      type: DT_INT32
    }
  }
  attr {
    key: "keep_dims"
    value {
      b: false
    }
  }
}
node {
  name: "loss_1/res3a_branch2a/kernel/Regularizer/Sum"
  op: "Sum"
  input: "loss_1/res3a_branch2a/kernel/Regularizer/Square"
  input: "loss_1/res5c_branch2c/kernel/Regularizer/Const"
  device: "/job:localhost/replica:0/task:0/device:GPU:0"
  attr {
    key: "T"
    value {
      type: DT_FLOAT
    }
  }
  attr {
    key: "Tidx"
    value {
      type: DT_INT32
    }
  }
  attr {
    key: "keep_dims"
    value {
      b: false
    }
  }
}
node {
  name: "loss_1/res3a_branch2b/kernel/Regularizer/Sum"
  op: "Sum"
  input: "loss_1/res3a_branch2b/kernel/Regularizer/Square"
  input: "loss_1/res5c_branch2c/kernel/Regularizer/Const"
  device: "/job:localhost/replica:0/task:0/device:GPU:0"
  attr {
    key: "T"
    value {
      type: DT_FLOAT
    }
  }
  attr {
    key: "Tidx"
    value {
      type: DT_INT32
    }
  }
  attr {
    key: "keep_dims"
    value {
      b: false
    }
  }
}
node {
  name: "loss_1/res3a_branch2c/kernel/Regularizer/Sum"
  op: "Sum"
  input: "loss_1/res3a_branch2c/kernel/Regularizer/Square"
  input: "loss_1/res5c_branch2c/kernel/Regularizer/Const"
  device: "/job:localhost/replica:0/task:0/device:GPU:0"
  attr {
    key: "T"
    value {
      type: DT_FLOAT
    }
  }
  attr {
    key: "Tidx"
    value {
      type: DT_INT32
    }
  }
  attr {
    key: "keep_dims"
    value {
      b: false
    }
  }
}
node {
  name: "loss_1/res3b_branch2a/kernel/Regularizer/Sum"
  op: "Sum"
  input: "loss_1/res3b_branch2a/kernel/Regularizer/Square"
  input: "loss_1/res5c_branch2c/kernel/Regularizer/Const"
  device: "/job:localhost/replica:0/task:0/device:GPU:0"
  attr {
    key: "T"
    value {
      type: DT_FLOAT
    }
  }
  attr {
    key: "Tidx"
    value {
      type: DT_INT32
    }
  }
  attr {
    key: "keep_dims"
    value {
      b: false
    }
  }
}
node {
  name: "loss_1/res3b_branch2b/kernel/Regularizer/Sum"
  op: "Sum"
  input: "loss_1/res3b_branch2b/kernel/Regularizer/Square"
  input: "loss_1/res5c_branch2c/kernel/Regularizer/Const"
  device: "/job:localhost/replica:0/task:0/device:GPU:0"
  attr {
    key: "T"
    value {
      type: DT_FLOAT
    }
  }
  attr {
    key: "Tidx"
    value {
      type: DT_INT32
    }
  }
  attr {
    key: "keep_dims"
    value {
      b: false
    }
  }
}
node {
  name: "loss_1/res3b_branch2c/kernel/Regularizer/Sum"
  op: "Sum"
  input: "loss_1/res3b_branch2c/kernel/Regularizer/Square"
  input: "loss_1/res5c_branch2c/kernel/Regularizer/Const"
  device: "/job:localhost/replica:0/task:0/device:GPU:0"
  attr {
    key: "T"
    value {
      type: DT_FLOAT
    }
  }
  attr {
    key: "Tidx"
    value {
      type: DT_INT32
    }
  }
  attr {
    key: "keep_dims"
    value {
      b: false
    }
  }
}
node {
  name: "loss_1/res3c_branch2a/kernel/Regularizer/Sum"
  op: "Sum"
  input: "loss_1/res3c_branch2a/kernel/Regularizer/Square"
  input: "loss_1/res5c_branch2c/kernel/Regularizer/Const"
  device: "/job:localhost/replica:0/task:0/device:GPU:0"
  attr {
    key: "T"
    value {
      type: DT_FLOAT
    }
  }
  attr {
    key: "Tidx"
    value {
      type: DT_INT32
    }
  }
  attr {
    key: "keep_dims"
    value {
      b: false
    }
  }
}
node {
  name: "loss_1/res3c_branch2b/kernel/Regularizer/Sum"
  op: "Sum"
  input: "loss_1/res3c_branch2b/kernel/Regularizer/Square"
  input: "loss_1/res5c_branch2c/kernel/Regularizer/Const"
  device: "/job:localhost/replica:0/task:0/device:GPU:0"
  attr {
    key: "T"
    value {
      type: DT_FLOAT
    }
  }
  attr {
    key: "Tidx"
    value {
      type: DT_INT32
    }
  }
  attr {
    key: "keep_dims"
    value {
      b: false
    }
  }
}
node {
  name: "loss_1/res3c_branch2c/kernel/Regularizer/Sum"
  op: "Sum"
  input: "loss_1/res3c_branch2c/kernel/Regularizer/Square"
  input: "loss_1/res5c_branch2c/kernel/Regularizer/Const"
  device: "/job:localhost/replica:0/task:0/device:GPU:0"
  attr {
    key: "T"
    value {
      type: DT_FLOAT
    }
  }
  attr {
    key: "Tidx"
    value {
      type: DT_INT32
    }
  }
  attr {
    key: "keep_dims"
    value {
      b: false
    }
  }
}
node {
  name: "loss_1/res3d_branch2a/kernel/Regularizer/Sum"
  op: "Sum"
  input: "loss_1/res3d_branch2a/kernel/Regularizer/Square"
  input: "loss_1/res5c_branch2c/kernel/Regularizer/Const"
  device: "/job:localhost/replica:0/task:0/device:GPU:0"
  attr {
    key: "T"
    value {
      type: DT_FLOAT
    }
  }
  attr {
    key: "Tidx"
    value {
      type: DT_INT32
    }
  }
  attr {
    key: "keep_dims"
    value {
      b: false
    }
  }
}
node {
  name: "loss_1/res3d_branch2b/kernel/Regularizer/Sum"
  op: "Sum"
  input: "loss_1/res3d_branch2b/kernel/Regularizer/Square"
  input: "loss_1/res5c_branch2c/kernel/Regularizer/Const"
  device: "/job:localhost/replica:0/task:0/device:GPU:0"
  attr {
    key: "T"
    value {
      type: DT_FLOAT
    }
  }
  attr {
    key: "Tidx"
    value {
      type: DT_INT32
    }
  }
  attr {
    key: "keep_dims"
    value {
      b: false
    }
  }
}
node {
  name: "loss_1/res3d_branch2c/kernel/Regularizer/Sum"
  op: "Sum"
  input: "loss_1/res3d_branch2c/kernel/Regularizer/Square"
  input: "loss_1/res5c_branch2c/kernel/Regularizer/Const"
  device: "/job:localhost/replica:0/task:0/device:GPU:0"
  attr {
    key: "T"
    value {
      type: DT_FLOAT
    }
  }
  attr {
    key: "Tidx"
    value {
      type: DT_INT32
    }
  }
  attr {
    key: "keep_dims"
    value {
      b: false
    }
  }
}
node {
  name: "loss_1/res4a_branch2a/kernel/Regularizer/Sum"
  op: "Sum"
  input: "loss_1/res4a_branch2a/kernel/Regularizer/Square"
  input: "loss_1/res5c_branch2c/kernel/Regularizer/Const"
  device: "/job:localhost/replica:0/task:0/device:GPU:0"
  attr {
    key: "T"
    value {
      type: DT_FLOAT
    }
  }
  attr {
    key: "Tidx"
    value {
      type: DT_INT32
    }
  }
  attr {
    key: "keep_dims"
    value {
      b: false
    }
  }
}
node {
  name: "loss_1/res4a_branch2b/kernel/Regularizer/Sum"
  op: "Sum"
  input: "loss_1/res4a_branch2b/kernel/Regularizer/Square"
  input: "loss_1/res5c_branch2c/kernel/Regularizer/Const"
  device: "/job:localhost/replica:0/task:0/device:GPU:0"
  attr {
    key: "T"
    value {
      type: DT_FLOAT
    }
  }
  attr {
    key: "Tidx"
    value {
      type: DT_INT32
    }
  }
  attr {
    key: "keep_dims"
    value {
      b: false
    }
  }
}
node {
  name: "loss_1/res4a_branch2c/kernel/Regularizer/Sum"
  op: "Sum"
  input: "loss_1/res4a_branch2c/kernel/Regularizer/Square"
  input: "loss_1/res5c_branch2c/kernel/Regularizer/Const"
  device: "/job:localhost/replica:0/task:0/device:GPU:0"
  attr {
    key: "T"
    value {
      type: DT_FLOAT
    }
  }
  attr {
    key: "Tidx"
    value {
      type: DT_INT32
    }
  }
  attr {
    key: "keep_dims"
    value {
      b: false
    }
  }
}
node {
  name: "loss_1/res4b_branch2a/kernel/Regularizer/Sum"
  op: "Sum"
  input: "loss_1/res4b_branch2a/kernel/Regularizer/Square"
  input: "loss_1/res5c_branch2c/kernel/Regularizer/Const"
  device: "/job:localhost/replica:0/task:0/device:GPU:0"
  attr {
    key: "T"
    value {
      type: DT_FLOAT
    }
  }
  attr {
    key: "Tidx"
    value {
      type: DT_INT32
    }
  }
  attr {
    key: "keep_dims"
    value {
      b: false
    }
  }
}
node {
  name: "loss_1/res4b_branch2b/kernel/Regularizer/Sum"
  op: "Sum"
  input: "loss_1/res4b_branch2b/kernel/Regularizer/Square"
  input: "loss_1/res5c_branch2c/kernel/Regularizer/Const"
  device: "/job:localhost/replica:0/task:0/device:GPU:0"
  attr {
    key: "T"
    value {
      type: DT_FLOAT
    }
  }
  attr {
    key: "Tidx"
    value {
      type: DT_INT32
    }
  }
  attr {
    key: "keep_dims"
    value {
      b: false
    }
  }
}
node {
  name: "loss_1/res4b_branch2c/kernel/Regularizer/Sum"
  op: "Sum"
  input: "loss_1/res4b_branch2c/kernel/Regularizer/Square"
  input: "loss_1/res5c_branch2c/kernel/Regularizer/Const"
  device: "/job:localhost/replica:0/task:0/device:GPU:0"
  attr {
    key: "T"
    value {
      type: DT_FLOAT
    }
  }
  attr {
    key: "Tidx"
    value {
      type: DT_INT32
    }
  }
  attr {
    key: "keep_dims"
    value {
      b: false
    }
  }
}
node {
  name: "loss_1/res4c_branch2a/kernel/Regularizer/Sum"
  op: "Sum"
  input: "loss_1/res4c_branch2a/kernel/Regularizer/Square"
  input: "loss_1/res5c_branch2c/kernel/Regularizer/Const"
  device: "/job:localhost/replica:0/task:0/device:GPU:0"
  attr {
    key: "T"
    value {
      type: DT_FLOAT
    }
  }
  attr {
    key: "Tidx"
    value {
      type: DT_INT32
    }
  }
  attr {
    key: "keep_dims"
    value {
      b: false
    }
  }
}
node {
  name: "loss_1/res4c_branch2b/kernel/Regularizer/Sum"
  op: "Sum"
  input: "loss_1/res4c_branch2b/kernel/Regularizer/Square"
  input: "loss_1/res5c_branch2c/kernel/Regularizer/Const"
  device: "/job:localhost/replica:0/task:0/device:GPU:0"
  attr {
    key: "T"
    value {
      type: DT_FLOAT
    }
  }
  attr {
    key: "Tidx"
    value {
      type: DT_INT32
    }
  }
  attr {
    key: "keep_dims"
    value {
      b: false
    }
  }
}
node {
  name: "loss_1/res4c_branch2c/kernel/Regularizer/Sum"
  op: "Sum"
  input: "loss_1/res4c_branch2c/kernel/Regularizer/Square"
  input: "loss_1/res5c_branch2c/kernel/Regularizer/Const"
  device: "/job:localhost/replica:0/task:0/device:GPU:0"
  attr {
    key: "T"
    value {
      type: DT_FLOAT
    }
  }
  attr {
    key: "Tidx"
    value {
      type: DT_INT32
    }
  }
  attr {
    key: "keep_dims"
    value {
      b: false
    }
  }
}
node {
  name: "loss_1/res4d_branch2a/kernel/Regularizer/Sum"
  op: "Sum"
  input: "loss_1/res4d_branch2a/kernel/Regularizer/Square"
  input: "loss_1/res5c_branch2c/kernel/Regularizer/Const"
  device: "/job:localhost/replica:0/task:0/device:GPU:0"
  attr {
    key: "T"
    value {
      type: DT_FLOAT
    }
  }
  attr {
    key: "Tidx"
    value {
      type: DT_INT32
    }
  }
  attr {
    key: "keep_dims"
    value {
      b: false
    }
  }
}
node {
  name: "loss_1/res4d_branch2b/kernel/Regularizer/Sum"
  op: "Sum"
  input: "loss_1/res4d_branch2b/kernel/Regularizer/Square"
  input: "loss_1/res5c_branch2c/kernel/Regularizer/Const"
  device: "/job:localhost/replica:0/task:0/device:GPU:0"
  attr {
    key: "T"
    value {
      type: DT_FLOAT
    }
  }
  attr {
    key: "Tidx"
    value {
      type: DT_INT32
    }
  }
  attr {
    key: "keep_dims"
    value {
      b: false
    }
  }
}
node {
  name: "loss_1/res4d_branch2c/kernel/Regularizer/Sum"
  op: "Sum"
  input: "loss_1/res4d_branch2c/kernel/Regularizer/Square"
  input: "loss_1/res5c_branch2c/kernel/Regularizer/Const"
  device: "/job:localhost/replica:0/task:0/device:GPU:0"
  attr {
    key: "T"
    value {
      type: DT_FLOAT
    }
  }
  attr {
    key: "Tidx"
    value {
      type: DT_INT32
    }
  }
  attr {
    key: "keep_dims"
    value {
      b: false
    }
  }
}
node {
  name: "loss_1/res4e_branch2a/kernel/Regularizer/Sum"
  op: "Sum"
  input: "loss_1/res4e_branch2a/kernel/Regularizer/Square"
  input: "loss_1/res5c_branch2c/kernel/Regularizer/Const"
  device: "/job:localhost/replica:0/task:0/device:GPU:0"
  attr {
    key: "T"
    value {
      type: DT_FLOAT
    }
  }
  attr {
    key: "Tidx"
    value {
      type: DT_INT32
    }
  }
  attr {
    key: "keep_dims"
    value {
      b: false
    }
  }
}
node {
  name: "loss_1/res4e_branch2b/kernel/Regularizer/Sum"
  op: "Sum"
  input: "loss_1/res4e_branch2b/kernel/Regularizer/Square"
  input: "loss_1/res5c_branch2c/kernel/Regularizer/Const"
  device: "/job:localhost/replica:0/task:0/device:GPU:0"
  attr {
    key: "T"
    value {
      type: DT_FLOAT
    }
  }
  attr {
    key: "Tidx"
    value {
      type: DT_INT32
    }
  }
  attr {
    key: "keep_dims"
    value {
      b: false
    }
  }
}
node {
  name: "loss_1/res4e_branch2c/kernel/Regularizer/Sum"
  op: "Sum"
  input: "loss_1/res4e_branch2c/kernel/Regularizer/Square"
  input: "loss_1/res5c_branch2c/kernel/Regularizer/Const"
  device: "/job:localhost/replica:0/task:0/device:GPU:0"
  attr {
    key: "T"
    value {
      type: DT_FLOAT
    }
  }
  attr {
    key: "Tidx"
    value {
      type: DT_INT32
    }
  }
  attr {
    key: "keep_dims"
    value {
      b: false
    }
  }
}
node {
  name: "loss_1/res4f_branch2a/kernel/Regularizer/Sum"
  op: "Sum"
  input: "loss_1/res4f_branch2a/kernel/Regularizer/Square"
  input: "loss_1/res5c_branch2c/kernel/Regularizer/Const"
  device: "/job:localhost/replica:0/task:0/device:GPU:0"
  attr {
    key: "T"
    value {
      type: DT_FLOAT
    }
  }
  attr {
    key: "Tidx"
    value {
      type: DT_INT32
    }
  }
  attr {
    key: "keep_dims"
    value {
      b: false
    }
  }
}
node {
  name: "loss_1/res4f_branch2b/kernel/Regularizer/Sum"
  op: "Sum"
  input: "loss_1/res4f_branch2b/kernel/Regularizer/Square"
  input: "loss_1/res5c_branch2c/kernel/Regularizer/Const"
  device: "/job:localhost/replica:0/task:0/device:GPU:0"
  attr {
    key: "T"
    value {
      type: DT_FLOAT
    }
  }
  attr {
    key: "Tidx"
    value {
      type: DT_INT32
    }
  }
  attr {
    key: "keep_dims"
    value {
      b: false
    }
  }
}
node {
  name: "loss_1/res4f_branch2c/kernel/Regularizer/Sum"
  op: "Sum"
  input: "loss_1/res4f_branch2c/kernel/Regularizer/Square"
  input: "loss_1/res5c_branch2c/kernel/Regularizer/Const"
  device: "/job:localhost/replica:0/task:0/device:GPU:0"
  attr {
    key: "T"
    value {
      type: DT_FLOAT
    }
  }
  attr {
    key: "Tidx"
    value {
      type: DT_INT32
    }
  }
  attr {
    key: "keep_dims"
    value {
      b: false
    }
  }
}
node {
  name: "loss_1/res5a_branch2a/kernel/Regularizer/Sum"
  op: "Sum"
  input: "loss_1/res5a_branch2a/kernel/Regularizer/Square"
  input: "loss_1/res5c_branch2c/kernel/Regularizer/Const"
  device: "/job:localhost/replica:0/task:0/device:GPU:0"
  attr {
    key: "T"
    value {
      type: DT_FLOAT
    }
  }
  attr {
    key: "Tidx"
    value {
      type: DT_INT32
    }
  }
  attr {
    key: "keep_dims"
    value {
      b: false
    }
  }
}
node {
  name: "loss_1/res5a_branch2b/kernel/Regularizer/Sum"
  op: "Sum"
  input: "loss_1/res5a_branch2b/kernel/Regularizer/Square"
  input: "loss_1/res5c_branch2c/kernel/Regularizer/Const"
  device: "/job:localhost/replica:0/task:0/device:GPU:0"
  attr {
    key: "T"
    value {
      type: DT_FLOAT
    }
  }
  attr {
    key: "Tidx"
    value {
      type: DT_INT32
    }
  }
  attr {
    key: "keep_dims"
    value {
      b: false
    }
  }
}
node {
  name: "loss_1/res5a_branch2c/kernel/Regularizer/Sum"
  op: "Sum"
  input: "loss_1/res5a_branch2c/kernel/Regularizer/Square"
  input: "loss_1/res5c_branch2c/kernel/Regularizer/Const"
  device: "/job:localhost/replica:0/task:0/device:GPU:0"
  attr {
    key: "T"
    value {
      type: DT_FLOAT
    }
  }
  attr {
    key: "Tidx"
    value {
      type: DT_INT32
    }
  }
  attr {
    key: "keep_dims"
    value {
      b: false
    }
  }
}
node {
  name: "loss_1/res5b_branch2a/kernel/Regularizer/Sum"
  op: "Sum"
  input: "loss_1/res5b_branch2a/kernel/Regularizer/Square"
  input: "loss_1/res5c_branch2c/kernel/Regularizer/Const"
  device: "/job:localhost/replica:0/task:0/device:GPU:0"
  attr {
    key: "T"
    value {
      type: DT_FLOAT
    }
  }
  attr {
    key: "Tidx"
    value {
      type: DT_INT32
    }
  }
  attr {
    key: "keep_dims"
    value {
      b: false
    }
  }
}
node {
  name: "loss_1/res5b_branch2b/kernel/Regularizer/Sum"
  op: "Sum"
  input: "loss_1/res5b_branch2b/kernel/Regularizer/Square"
  input: "loss_1/res5c_branch2c/kernel/Regularizer/Const"
  device: "/job:localhost/replica:0/task:0/device:GPU:0"
  attr {
    key: "T"
    value {
      type: DT_FLOAT
    }
  }
  attr {
    key: "Tidx"
    value {
      type: DT_INT32
    }
  }
  attr {
    key: "keep_dims"
    value {
      b: false
    }
  }
}
node {
  name: "loss_1/res5b_branch2c/kernel/Regularizer/Sum"
  op: "Sum"
  input: "loss_1/res5b_branch2c/kernel/Regularizer/Square"
  input: "loss_1/res5c_branch2c/kernel/Regularizer/Const"
  device: "/job:localhost/replica:0/task:0/device:GPU:0"
  attr {
    key: "T"
    value {
      type: DT_FLOAT
    }
  }
  attr {
    key: "Tidx"
    value {
      type: DT_INT32
    }
  }
  attr {
    key: "keep_dims"
    value {
      b: false
    }
  }
}
node {
  name: "loss_1/res5c_branch2a/kernel/Regularizer/Sum"
  op: "Sum"
  input: "loss_1/res5c_branch2a/kernel/Regularizer/Square"
  input: "loss_1/res5c_branch2c/kernel/Regularizer/Const"
  device: "/job:localhost/replica:0/task:0/device:GPU:0"
  attr {
    key: "T"
    value {
      type: DT_FLOAT
    }
  }
  attr {
    key: "Tidx"
    value {
      type: DT_INT32
    }
  }
  attr {
    key: "keep_dims"
    value {
      b: false
    }
  }
}
node {
  name: "loss_1/res5c_branch2b/kernel/Regularizer/Sum"
  op: "Sum"
  input: "loss_1/res5c_branch2b/kernel/Regularizer/Square"
  input: "loss_1/res5c_branch2c/kernel/Regularizer/Const"
  device: "/job:localhost/replica:0/task:0/device:GPU:0"
  attr {
    key: "T"
    value {
      type: DT_FLOAT
    }
  }
  attr {
    key: "Tidx"
    value {
      type: DT_INT32
    }
  }
  attr {
    key: "keep_dims"
    value {
      b: false
    }
  }
}
node {
  name: "loss_1/res5c_branch2c/kernel/Regularizer/Sum"
  op: "Sum"
  input: "loss_1/res5c_branch2c/kernel/Regularizer/Square"
  input: "loss_1/res5c_branch2c/kernel/Regularizer/Const"
  device: "/job:localhost/replica:0/task:0/device:GPU:0"
  attr {
    key: "T"
    value {
      type: DT_FLOAT
    }
  }
  attr {
    key: "Tidx"
    value {
      type: DT_INT32
    }
  }
  attr {
    key: "keep_dims"
    value {
      b: false
    }
  }
}
node {
  name: "loss_1/fc1000/kernel/Regularizer/Sum"
  op: "Sum"
  input: "loss_1/fc1000/kernel/Regularizer/Square"
  input: "loss_1/fc1000/kernel/Regularizer/Const"
  device: "/job:localhost/replica:0/task:0/device:GPU:0"
  attr {
    key: "T"
    value {
      type: DT_FLOAT
    }
  }
  attr {
    key: "Tidx"
    value {
      type: DT_INT32
    }
  }
  attr {
    key: "keep_dims"
    value {
      b: false
    }
  }
}
node {
  name: "loss_1/fc1000/bias/Regularizer/Sum"
  op: "Sum"
  input: "loss_1/fc1000/bias/Regularizer/Square"
  input: "metrics_2/sparse_categorical_accuracy/Const"
  device: "/job:localhost/replica:0/task:0/device:GPU:0"
  attr {
    key: "T"
    value {
      type: DT_FLOAT
    }
  }
  attr {
    key: "Tidx"
    value {
      type: DT_INT32
    }
  }
  attr {
    key: "keep_dims"
    value {
      b: false
    }
  }
}
node {
  name: "bn_conv1_1/FusedBatchNorm"
  op: "FusedBatchNorm"
  input: "conv1_1/Conv2D"
  input: "bn_conv1_1/ReadVariableOp"
  input: "bn_conv1_1/ReadVariableOp_1"
  input: "bn5a_branch1_1/Const_1"
  input: "bn5a_branch1_1/Const_1"
  device: "/job:localhost/replica:0/task:0/device:GPU:0"
  attr {
    key: "T"
    value {
      type: DT_FLOAT
    }
  }
  attr {
    key: "data_format"
    value {
      s: "NCHW"
    }
  }
  attr {
    key: "epsilon"
    value {
      f: 1.001e-05
    }
  }
  attr {
    key: "is_training"
    value {
      b: true
    }
  }
}
node {
  name: "loss_1/ArithmeticOptimizer/HoistCommonFactor_Add_AddN"
  op: "AddN"
  input: "loss_1/conv1/kernel/Regularizer/Sum"
  input: "loss_1/fc1000/bias/Regularizer/Sum"
  input: "loss_1/fc1000/kernel/Regularizer/Sum"
  input: "loss_1/res2a_branch1/kernel/Regularizer/Sum"
  input: "loss_1/res2a_branch2a/kernel/Regularizer/Sum"
  input: "loss_1/res2a_branch2b/kernel/Regularizer/Sum"
  input: "loss_1/res2a_branch2c/kernel/Regularizer/Sum"
  input: "loss_1/res2b_branch2a/kernel/Regularizer/Sum"
  input: "loss_1/res2b_branch2b/kernel/Regularizer/Sum"
  input: "loss_1/res2b_branch2c/kernel/Regularizer/Sum"
  input: "loss_1/res2c_branch2a/kernel/Regularizer/Sum"
  input: "loss_1/res2c_branch2b/kernel/Regularizer/Sum"
  input: "loss_1/res2c_branch2c/kernel/Regularizer/Sum"
  input: "loss_1/res3a_branch1/kernel/Regularizer/Sum"
  input: "loss_1/res3a_branch2a/kernel/Regularizer/Sum"
  input: "loss_1/res3a_branch2b/kernel/Regularizer/Sum"
  input: "loss_1/res3a_branch2c/kernel/Regularizer/Sum"
  input: "loss_1/res3b_branch2a/kernel/Regularizer/Sum"
  input: "loss_1/res3b_branch2b/kernel/Regularizer/Sum"
  input: "loss_1/res3b_branch2c/kernel/Regularizer/Sum"
  input: "loss_1/res3c_branch2a/kernel/Regularizer/Sum"
  input: "loss_1/res3c_branch2b/kernel/Regularizer/Sum"
  input: "loss_1/res3c_branch2c/kernel/Regularizer/Sum"
  input: "loss_1/res3d_branch2a/kernel/Regularizer/Sum"
  input: "loss_1/res3d_branch2b/kernel/Regularizer/Sum"
  input: "loss_1/res3d_branch2c/kernel/Regularizer/Sum"
  input: "loss_1/res4a_branch1/kernel/Regularizer/Sum"
  input: "loss_1/res4a_branch2a/kernel/Regularizer/Sum"
  input: "loss_1/res4a_branch2b/kernel/Regularizer/Sum"
  input: "loss_1/res4a_branch2c/kernel/Regularizer/Sum"
  input: "loss_1/res4b_branch2a/kernel/Regularizer/Sum"
  input: "loss_1/res4b_branch2b/kernel/Regularizer/Sum"
  input: "loss_1/res4b_branch2c/kernel/Regularizer/Sum"
  input: "loss_1/res4c_branch2a/kernel/Regularizer/Sum"
  input: "loss_1/res4c_branch2b/kernel/Regularizer/Sum"
  input: "loss_1/res4c_branch2c/kernel/Regularizer/Sum"
  input: "loss_1/res4d_branch2a/kernel/Regularizer/Sum"
  input: "loss_1/res4d_branch2b/kernel/Regularizer/Sum"
  input: "loss_1/res4d_branch2c/kernel/Regularizer/Sum"
  input: "loss_1/res4e_branch2a/kernel/Regularizer/Sum"
  input: "loss_1/res4e_branch2b/kernel/Regularizer/Sum"
  input: "loss_1/res4e_branch2c/kernel/Regularizer/Sum"
  input: "loss_1/res4f_branch2a/kernel/Regularizer/Sum"
  input: "loss_1/res4f_branch2b/kernel/Regularizer/Sum"
  input: "loss_1/res4f_branch2c/kernel/Regularizer/Sum"
  input: "loss_1/res5a_branch1/kernel/Regularizer/Sum"
  input: "loss_1/res5a_branch2a/kernel/Regularizer/Sum"
  input: "loss_1/res5a_branch2b/kernel/Regularizer/Sum"
  input: "loss_1/res5a_branch2c/kernel/Regularizer/Sum"
  input: "loss_1/res5b_branch2a/kernel/Regularizer/Sum"
  input: "loss_1/res5b_branch2b/kernel/Regularizer/Sum"
  input: "loss_1/res5b_branch2c/kernel/Regularizer/Sum"
  input: "loss_1/res5c_branch2a/kernel/Regularizer/Sum"
  input: "loss_1/res5c_branch2b/kernel/Regularizer/Sum"
  input: "loss_1/res5c_branch2c/kernel/Regularizer/Sum"
  device: "/job:localhost/replica:0/task:0/device:GPU:0"
  attr {
    key: "N"
    value {
      i: 55
    }
  }
  attr {
    key: "T"
    value {
      type: DT_FLOAT
    }
  }
}
node {
  name: "bn_conv1_1/AssignMovingAvg/sub_1"
  op: "Sub"
  input: "bn_conv1_1/AssignMovingAvg/ReadVariableOp"
  input: "bn_conv1_1/FusedBatchNorm:1"
  device: "/job:localhost/replica:0/task:0/device:GPU:0"
  attr {
    key: "T"
    value {
      type: DT_FLOAT
    }
  }
  attr {
    key: "_class"
    value {
      list {
        s: "loc:@bn_conv1_1/AssignMovingAvg/AssignSubVariableOp"
      }
    }
  }
}
node {
  name: "bn_conv1_1/AssignMovingAvg_1/sub_1"
  op: "Sub"
  input: "bn_conv1_1/AssignMovingAvg_1/ReadVariableOp"
  input: "bn_conv1_1/FusedBatchNorm:2"
  device: "/job:localhost/replica:0/task:0/device:GPU:0"
  attr {
    key: "T"
    value {
      type: DT_FLOAT
    }
  }
  attr {
    key: "_class"
    value {
      list {
        s: "loc:@bn_conv1_1/AssignMovingAvg_1/AssignSubVariableOp"
      }
    }
  }
}
node {
  name: "activation_50/Relu"
  op: "Relu"
  input: "bn_conv1_1/FusedBatchNorm"
  device: "/job:localhost/replica:0/task:0/device:GPU:0"
  attr {
    key: "T"
    value {
      type: DT_FLOAT
    }
  }
}
node {
  name: "loss_1/ArithmeticOptimizer/HoistCommonFactor_Mul_AddN"
  op: "Mul"
  input: "loss_1/fc1000/bias/Regularizer/mul/x"
  input: "loss_1/ArithmeticOptimizer/HoistCommonFactor_Add_AddN"
  device: "/job:localhost/replica:0/task:0/device:GPU:0"
  attr {
    key: "T"
    value {
      type: DT_FLOAT
    }
  }
}
node {
  name: "bn_conv1_1/AssignMovingAvg/mul"
  op: "Mul"
  input: "bn_conv1_1/AssignMovingAvg/sub_1"
  input: "bn_conv1_1/AssignMovingAvg_1/sub"
  device: "/job:localhost/replica:0/task:0/device:GPU:0"
  attr {
    key: "T"
    value {
      type: DT_FLOAT
    }
  }
  attr {
    key: "_class"
    value {
      list {
        s: "loc:@bn_conv1_1/AssignMovingAvg/AssignSubVariableOp"
      }
    }
  }
}
node {
  name: "bn_conv1_1/AssignMovingAvg_1/mul"
  op: "Mul"
  input: "bn_conv1_1/AssignMovingAvg_1/sub"
  input: "bn_conv1_1/AssignMovingAvg_1/sub_1"
  device: "/job:localhost/replica:0/task:0/device:GPU:0"
  attr {
    key: "T"
    value {
      type: DT_FLOAT
    }
  }
  attr {
    key: "_class"
    value {
      list {
        s: "loc:@bn_conv1_1/AssignMovingAvg_1/AssignSubVariableOp"
      }
    }
  }
}
node {
  name: "max_pooling2d_1/MaxPool"
  op: "MaxPool"
  input: "activation_50/Relu"
  device: "/job:localhost/replica:0/task:0/device:GPU:0"
  attr {
    key: "T"
    value {
      type: DT_FLOAT
    }
  }
  attr {
    key: "data_format"
    value {
      s: "NCHW"
    }
  }
  attr {
    key: "ksize"
    value {
      list {
        i: 1
        i: 1
        i: 3
        i: 3
      }
    }
  }
  attr {
    key: "padding"
    value {
      s: "SAME"
    }
  }
  attr {
    key: "strides"
    value {
      list {
        i: 1
        i: 1
        i: 2
        i: 2
      }
    }
  }
}
node {
  name: "bn_conv1_1/AssignMovingAvg/AssignSubVariableOp"
  op: "AssignSubVariableOp"
  input: "bn_conv1/moving_mean"
  input: "bn_conv1_1/AssignMovingAvg/mul"
  device: "/job:localhost/replica:0/task:0/device:GPU:0"
  attr {
    key: "dtype"
    value {
      type: DT_FLOAT
    }
  }
}
node {
  name: "bn_conv1_1/AssignMovingAvg_1/AssignSubVariableOp"
  op: "AssignSubVariableOp"
  input